Cartpole/cartpole_500.pth (torch, 38511 bytes, 18 tensors)

fc1.weight f4 [32, 4]
0	0x3e057672	0.13033465
1	0x3eb449cf	0.3521256
2	0x3da8f063	0.08248975
3	0x3e830209	0.2558749
4	0xbec40254	-0.38283026
5	0x3ed04399	0.40676573
6	0xbe03f787	-0.12887393
7	0x3eb8d373	0.36098823
8	0xbefce83b	-0.49395928
9	0x3eb5770f	0.35442397
10	0x3e5484a0	0.20753717
11	0xbd751473	-0.059833955
12	0x3d13a072	0.036041684
13	0xbcb7eab8	-0.02245079
14	0xbedfcbd2	-0.4371019
15	0xbe87dac6	-0.26534098
16	0x3daacc0a	0.083396986
17	0x3e3ff656	0.18746313
18	0xbeb4d0cd	-0.35315552
19	0xbe1e48f7	-0.15457521
20	0x3eae4fb0	0.34045172
21	0xbe90ad84	-0.28257382
22	0x3c3e42aa	0.011612574
23	0xbddb1d98	-0.10699004
24	0xbdcde9fb	-0.10054394
25	0x3e7d5f94	0.24743491
26	0x3da11a27	0.07866316
27	0xbbca091d	-0.006165637
28	0xbee122be	-0.4397182
29	0xbd7307b1	-0.059333507
30	0x3e5f5980	0.21811485
31	0xbeef7fcf	-0.46777198
32	0x3ebe9ed7	0.3723056
33	0xbef3dc7a	-0.47629148
34	0x3e674a8c	0.22587031
35	0xbec1a9b5	-0.3782479
36	0x3ed7d536	0.42154855
37	0xbeb6fdbb	-0.35740456
38	0x3c9a3e8f	0.018828658
39	0x3f08bb58	0.53410864
40	0xbeae288a	-0.34015304
41	0x3eb08f59	0.34484366
42	0x3f011148	0.50416994
43	0x3e299483	0.16560559
44	0xbe8c021a	-0.27345353
45	0x3ed9dea6	0.4255268
46	0x3e1d4312	0.15357617
47	0xbe8a0f5f	-0.26964852
48	0x3e92490d	0.28571358
49	0x3ec05b52	0.37569672
50	0xbec14a36	-0.3775193
51	0xbec132aa	-0.37733966
52	0x3ec69b38	0.38790298
53	0xbe872b00	-0.26399994
54	0x3e9f6bb0	0.31136847
55	0x3d04f91e	0.03246414
56	0x3e6ea4a9	0.23305
57	0x3ea03670	0.31291533
58	0xbdd650a7	-0.10464602
59	0xbe2e379d	-0.17013402
60	0x3d6f4bc0	0.05842185
61	0xbf09d98b	-0.5384757
62	0x3e9ff9a1	0.3124514
63	0xbeaf00c9	-0.34180287
64	0xbd61a450	-0.05508834
65	0x3dd6e948	0.104937136
66	0xbd118f10	-0.035536826
67	0x3d2f2b90	0.042766154
68	0x3ee5139d	0.44741526
69	0xbdf9b051	-0.12191833
70	0xbe76908a	-0.24078575
71	0xbee2031a	-0.4414299
72	0xbeac494d	-0.33649674
73	0xbe57b9cf	-0.21066974
74	0xbeaabe69	-0.33348396
75	0x3eb21237	0.34779522
76	0xbd82ecba	-0.06392808
77	0x3e2fff8e	0.1718733
78	0xbecb8717	-0.39751503
79	0x3ed0cfc1	0.40783504
80	0x3e216c3b	0.15763943
81	0x3edd8adc	0.43270004
82	0xbe9ddc78	-0.30832267
83	0xbe425aaf	-0.18979906
84	0xbdf98ba2	-0.12184836
85	0x3ec7ccd3	0.39023456
86	0xbe35442f	-0.17701791
87	0x3f0002f9	0.50004536
88	0xbd8b4f78	-0.06802267
89	0xbdd45f2e	-0.103697166
90	0xbe60e6a4	-0.21962982
91	0xbde50fd5	-0.1118466
92	0xbeb70577	-0.35746357
93	0xbed45909	-0.41474178
94	0xbd52c884	-0.051460758
95	0xbe8ebdfe	-0.27879328
96	0xbe94faed	-0.2909769
97	0xbe068f27	-0.13140546
98	0xbeb9a3d7	-0.36257812
99	0xbe9c03bc	-0.304716
100	0x3ef252e7	0.47328874
101	0xbece6dac	-0.40318048
102	0xbd595de7	-0.053068068
103	0x3e94d920	0.29071903
104	0x3eea4611	0.4575658
105	0x3ec71794	0.38885176
106	0xbe88dbd7	-0.26730224
107	0x3dd6e053	0.10492005
108	0x3e92a429	0.2864087
109	0x3ee158a2	0.44012934
110	0xbe0422a6	-0.12903842
111	0x3eff5fcb	0.49877772
112	0xbe5f5440	-0.21809483
113	0xbee0ac29	-0.43881348
114	0xbeaa02b0	-0.33205175
115	0x3ee03f8f	0.4379849
116	0xbeea0de6	-0.4571373
117	0x3ddd7310	0.10812962
118	0xbd9eaab0	-0.077474
119	0xbd8e5228	-0.06949264
120	0x3e4b7850	0.19870114
121	0xbef334e3	-0.47501287
122	0x3e5c6b3b	0.2152528
123	0x3ed2057e	0.41019815
124	0xbe16fafb	-0.14744179
125	0x3ef283ae	0.4736609
126	0x3eb7f8c8	0.35931993
127	0x3e69b56d	0.22823115

fc1.bias f4 [32]
0	0xbe88865d	-0.2666501
1	0x3e4eef58	0.2020849
2	0x3f2b1f3e	0.66844547
3	0x3d2960eb	0.041352194
4	0xbea40c24	-0.32040513
5	0x3eb2b1e7	0.34901354
6	0x3eed4416	0.46341008
7	0x3f008223	0.5019857
8	0x3e268a68	0.16263735
9	0x3d0fb09f	0.03508055
10	0x3e85056a	0.25980693
11	0x3e819382	0.25307852
12	0x3d726596	0.05917891
13	0xbe1c191d	-0.15243955
14	0xbea538e6	-0.32269973
15	0x3e256433	0.16151504
16	0xbeb0d94a	-0.34540778
17	0x3f07ddf2	0.53073037
18	0xbeb7dd1a	-0.35910875
19	0x3efe8264	0.49708855
20	0x3e981449	0.29702976
21	0x3efe7a15	0.49702516
22	0x3e85a8a8	0.26105237
23	0xbd6750fc	-0.056473717
24	0x3f16466f	0.58701223
25	0x3f29458c	0.66121745
26	0x3e659594	0.22420341
27	0x3ed0f994	0.40815413
28	0xbeb8e82b	-0.3611463
29	0xbecf6382	-0.40505606
30	0x3ec288d8	0.37995028
31	0xbebd76ee	-0.370048

fc2.weight f4 [64, 32]
0	0x3e1451de	0.14484355
1	0x3e190721	0.14944126
2	0x3eb09ad7	0.34493133
3	0xbdd72a3c	-0.105061024
4	0x3c6db647	0.01450879
5	0x3ddcb440	0.107765675
6	0x3ea879d2	0.32905442
7	0x3e7364cb	0.23768918
8	0x3e6f9c38	0.23399436
9	0x3e183df0	0.14867377
10	0x3e7df258	0.24799478
11	0x3e6e9758	0.2329992
12	0x3de85e18	0.11346072
13	0x3e20745e	0.1566939
14	0xbe94a407	-0.29031393
15	0x3ead38f1	0.33832505
16	0xbb9e10e4	-0.004823791
17	0x3d97bf82	0.07409574
18	0x3ddd1195	0.10794369
19	0x3dc29b73	0.09502306
20	0x3e7220c1	0.23645307
21	0x3e831424	0.25601304
22	0x3d008edc	0.03138624
23	0x3dbebdc6	0.0931354
24	0x3d68c340	0.05682683
25	0x3ea5654d	0.3230385
26	0x3e9d2c18	0.30697703
27	0x3ea7406a	0.32666332
28	0x3da18c8f	0.078881375
29	0xbe1c640f	-0.15272544
30	0x3deb5c90	0.11492264
31	0x3d0cbd3e	0.034360163
32	0xbcfda625	-0.030963013
33	0xbdf9a49f	-0.12189602
34	0xbe064b60	-0.13114691
35	0xbdae83fd	-0.085212685
36	0xbe10c630	-0.14138103
37	0x3e111ee3	0.14171939
38	0x3dc1bfed	0.09460435
39	0x3e0cc067	0.1374527
40	0xbc2fd8ce	-0.010732843
41	0xbd8a2a22	-0.067463174
42	0xbc843627	-0.016139103
43	0x3e23de67	0.16002809
44	0x3e1fb2ac	0.15595502
45	0x3d16be82	0.036802776
46	0xbd16eaa8	-0.03684488
47	0x3e0e8fd4	0.13922054
48	0xbe262cd5	-0.1622804
49	0xbe1f4c51	-0.15556456
50	0x3dc4fcc7	0.09618526
51	0xbe21ac9a	-0.15788499
52	0xbdcf7d68	-0.10131341
53	0x3d264f68	0.04060307
54	0xbe05c0e5	-0.13061865
55	0x3dcae1d5	0.09906355
56	0xbdc39d01	-0.095514305
57	0xbe2fb8d0	-0.17160344
58	0x3d26ea65	0.04075088
59	0x3c4f3726	0.012647426
60	0xbb0400fc	-0.0020142188
61	0xbde601b0	-0.112307906
62	0xb8cb9a41	-9.708526e-05
63	0xbd15b9f6	-0.0365543
64	0x3e24e364	0.16102368
65	0x3e3bc606	0.18337259
66	0x3e321b95	0.17393334
67	0x3d1fa829	0.03897873
68	0x3def1d90	0.116755605
69	0x3e9837a7	0.2972996
70	0x3d8793b0	0.06619966
71	0x3e4d3e87	0.20043384
72	0x3e3e51db	0.18585913
73	0x3e4cd3c0	0.20002651
74	0x3da930f4	0.0826129
75	0x3e3c5fc7	0.18395911
76	0x3d464880	0.048408985
77	0x3cdade4b	0.026717326
78	0xbe46ba39	-0.19406976
79	0x3e9c9701	0.30583957
80	0xbdead465	-0.11466292
81	0x3e12a5ae	0.14321014
82	0xbbdcd634	-0.006739402
83	0x3e5b6a33	0.2142723
84	0xbcb188f0	-0.021671742
85	0x3e2518eb	0.16122787
86	0x3c7faddf	0.015605419
87	0xbd2cca8b	-0.042185348
88	0x3e67a022	0.2261968
89	0x3e3d1510	0.18465066
90	0x3cbbb75e	0.022914585
91	0x3e3516e4	0.17684513
92	0x3b11311a	0.002215451
93	0xbd053c61	-0.032528285
94	0x3db1a8d5	0.0867478
95	0xbc7765d2	-0.015099959
96	0x3dd85d3b	0.10564657
97	0x3cff854c	0.03119149
98	0xbe0179ec	-0.12644166
99	0xbd1991c4	-0.03749253
100	0x3e2b9869	0.16757359
101	0xbc9b4344	-0.018952973
102	0xbc070c0a	-0.008242616
103	0x3e17a48c	0.14808863
104	0xbc82bcd2	-0.015959177
105	0xbda0d865	-0.07853774
106	0xbd7deac7	-0.06199148
107	0xbdef9fdb	-0.11700412
108	0x3d5e8d62	0.054334052
109	0xbbc6841e	-0.00605823
110	0xbe03bed8	-0.1286577
111	0xbbf617ad	-0.0075101466
112	0xbe216d4e	-0.15764353
113	0xbdea4f37	-0.1144089
114	0x3e2a23ed	0.16615267
115	0xbde0cd88	-0.10976702
116	0xbd16df6e	-0.036834173
117	0x3de07f68	0.10961801
118	0x3d1706a7	0.03687158
119	0xbdeeb8cf	-0.11656343
120	0x3d48b09c	0.048996553
121	0xbdba3e08	-0.09093863
122	0xbde66f58	-0.11251706
123	0xbd614c39	-0.055004332
124	0x3d578c3f	0.052623983
125	0xbda7a0e8	-0.08184987
126	0x3ce5f82a	0.028072435
127	0xbb37f16c	-0.0028067483
128	0x3d6a4ef6	0.05720421
129	0x3d956574	0.07294741
130	0x3e15ae99	0.14617385
131	0x3d8c02ca	0.068364695
132	0xbcb5e2fb	-0.02220296
133	0x3e24ae87	0.16082202
134	0xbe065c88	-0.13121235
135	0xbdede6b0	-0.11616266
136	0x3d2fcfa2	0.042922623
137	0x3e2d1e0a	0.1690599
138	0xbdfbe754	-0.12299982
139	0xbe11b5b5	-0.14229472
140	0x3e2fe9e0	0.1717906
141	0xbe2ee1f0	-0.17078376
142	0xbd2037ba	-0.039115645
143	0xbd8e86c1	-0.06959296
144	0xbdde3af0	-0.10851085
145	0xbe2bd30c	-0.16779727
146	0x3dbdb320	0.09262681
147	0xbd835641	-0.06412936
148	0x3d3d413b	0.046204787
149	0xbbf3dddd	-0.0074422196
150	0xbd758433	-0.059940528
151	0xbe48545c	-0.1956343
152	0x3d9bf4ed	0.07615075
153	0xbe32f121	-0.17474796
154	0x3d2e5d44	0.042569414
155	0x3c29306d	0.010326487
156	0x3d086cc8	0.033306867
157	0xbdae568f	-0.085126035
158	0x3c1861bd	0.009300646
159	0xbe34f896	-0.17672953
160	0xbdc6036c	-0.096686214
161	0x3e136f52	0.14397934
162	0xbe482315	-0.19544633
163	0x3db8b7f0	0.09019458
164	0x3df11a66	0.11772613
165	0x3dc60be1	0.096702345
166	0x3c53e188	0.012932189
167	0xbdc466dd	-0.09589932
168	0xbe11573c	-0.14193434
169	0xbd34b9f6	-0.04412266
170	0xbc9e58af	-0.019329397
171	0xbd06898b	-0.032846015
172	0xbdc4314e	-0.095797166
173	0xbd7db329	-0.06193844
174	0xbd8eb898	-0.06968802
175	0x3b9510c9	0.00454912
176	0xbe164b56	-0.14677176
177	0x3b9e5fc6	0.0048331944
178	0xbd303666	-0.04302063
179	0xbd25cef4	-0.04048057
180	0xbdbf0697	-0.09327429
181	0xbcd44179	-0.025910126
182	0x3dd7f66f	0.1054505
183	0x3d9e5471	0.0773095
184	0xbd17da55	-0.037073452
185	0xbe0a58e8	-0.13510478
186	0x3d8df3dd	0.06931279
187	0x3e035da8	0.12828696
188	0x3b3e1966	0.0029006838
189	0x3e187809	0.1488954
190	0xbdea6398	-0.11444777
191	0x3debbe75	0.11510936
192	0x3dcc6c0e	0.09981547
193	0x3c04d2e9	0.0081069255
194	0xbd3aafc7	-0.04557779
195	0xbe142aa6	-0.14469394
196	0x3d278a5b	0.04090343
197	0x3e1f97a1	0.15585186
198	0x3d815fd8	0.06317109
199	0xbdd10b4f	-0.10207235
200	0x3cc0a65b	0.023516824
201	0xbe05d3c9	-0.13069071
202	0x3d63491f	0.055489656
203	0xbd791b71	-0.060817186
204	0xbe190c91	-0.149462
205	0x3dd04527	0.1016944
206	0xbdbbc2ad	-0.09167991
207	0xbe1a456c	-0.15065545
208	0x3d9d1477	0.07669919
209	0xbda48baa	-0.08034451
210	0xbdeccc54	-0.1156241
211	0xbe2f60b5	-0.17126735
212	0x3e2701cd	0.1630928
213	0xbe0d9323	-0.1382566
214	0x3e337d47	0.17528258
215	0x3a77b282	0.0009448902
216	0x3e105124	0.14093453
217	0x3dd22876	0.102616236
218	0xbcfa1dd8	-0.030531809
219	0x3e0ecabc	0.13944525
220	0xbdec76d9	-0.11546106
221	0xbd1ee692	-0.038794108
222	0x3cbec7bb	0.023288598
223	0xbe0eb31e	-0.13935515
224	0xbda2efd7	-0.07955902
225	0x3e4af93a	0.19821635
226	0x3cecbe77	0.028899414
227	0xbc6ea95f	-0.014566748
228	0xbe1610ce	-0.14654848
229	0x3d21ce48	0.039503366
230	0x3d54eda4	0.051984444
231	0x3ea8cce5	0.32968822
232	0x3ea695e6	0.32536238
233	0x3de19e8a	0.11016567
234	0x3ddcb985	0.107775725
235	0x3e29c871	0.16580369
236	0x3da26f95	0.07931439
237	0xbda24a0d	-0.0792428
238	0xbe83e21e	-0.2575845
239	0x3ea9a45d	0.33133212
240	0x3c4e1e9b	0.012580539
241	0x3cea1ff1	0.028579684
242	0x3c93e291	0.018052371
243	0x3eaf59a6	0.34248084
244	0x3d89746a	0.06711657
245	0x3eae8d16	0.34092015
246	0x3e705278	0.2346896
247	0xbcc5be0b	-0.024138471
248	0x3eb73ab7	0.35786983
249	0x3e9e0466	0.3086273
250	0x3e974837	0.29547283
251	0x3e8a6cb5	0.27036062
252	0xbdeb8915	-0.11500756
253	0x3dab4c2d	0.08364139
254	0xbd14ce75	-0.036329705
255	0xbdf52a8c	-0.11971006

fc2.bias f4 [64]
0	0x3e770c85	0.2412587
1	0xbcbb9509	-0.022898214
2	0x3e0212c5	0.12702473
3	0x3be60615	0.007019768
4	0xbddb41c0	-0.107059
5	0x3e0b1094	0.13580543
6	0xbddfd783	-0.109297775
7	0x3e160ddb	0.14653723
8	0xbdd34fcf	-0.10317957
9	0x3eaf2307	0.3420641
10	0x3dbc06a7	0.09180956
11	0xbd099be1	-0.033595923
12	0x3e383c40	0.17991734
13	0x3d275354	0.040850952
14	0x3e6bb3d4	0.23017818
15	0xbdea3dfe	-0.11437605
16	0x3e5c000f	0.21484397
17	0xbe0c39a5	-0.13693865
18	0x3e4b09c2	0.19827941
19	0x3d5ab9e2	0.053399928
20	0xbe2f3511	-0.17110087
21	0x3e66cfc2	0.22540191
22	0x3e9bc532	0.30423886
23	0xbdeaea8c	-0.114705175
24	0x3e004ad6	0.12528548
25	0xbd5354b0	-0.051594436
26	0xbaa95b8b	-0.0012920959
27	0x3e4dcb49	0.20097078
28	0x3e99db30	0.3005004
29	0x3eb31e03	0.34983835
30	0x3d320e2f	0.043470558
31	0x3c8531ac	0.016259037
32	0xbe36a164	-0.17835003
33	0xbe02e52d	-0.12782736
34	0x3df37538	0.11887592
35	0x3e72cf8a	0.23711982
36	0x3eb01096	0.34387654
37	0xbce92748	-0.028461114
38	0xbde40dd4	-0.1113545
39	0x3e196320	0.1497922
40	0x3e5f4577	0.21803842
41	0x3c9655f6	0.018351536
42	0x3e857e5e	0.26072973
43	0x3dab6c9b	0.08370324
44	0xbe3415b8	-0.1758641
45	0x3e3296ce	0.1744034
46	0x3e0d85f6	0.13820633
47	0xbe33ea58	-0.17569864
48	0xbdd2cdf2	-0.10293187
49	0x3da84b3f	0.08217477
50	0x3e2b5e21	0.16735126
51	0x3e980ea1	0.2969866
52	0x3e345ba5	0.17613085
53	0x3dc157dc	0.09440586
54	0x3d87bc5b	0.06627723
55	0xbe3e9c8c	-0.18614405
56	0xbda08b4a	-0.07839067
57	0x3e9dea46	0.308428
58	0x3e633c2e	0.22190925
59	0xbd354cc9	-0.04426268
60	0x3e258330	0.16163325
61	0xbce01b54	-0.027356781
62	0x3e7cbabd	0.2468061
63	0xbca40480	-0.020021677

fc3.weight f4 [2, 64]
0	0xbe866cff	-0.26255032
1	0x3cdc7230	0.026909918
2	0xbe5efe40	-0.21776676
3	0x3c6df5d0	0.014523938
4	0x3cf41514	0.029795207
5	0x3db659d8	0.08903855
6	0x3ba5a140	0.005054623
7	0xbe76a3b0	-0.2408588
8	0x3c080a20	0.008303195
9	0xbe396835	-0.18106158
10	0x3cb32999	0.021870421
11	0x3def3222	0.11679484
12	0xbdb52a49	-0.08845956
13	0xbe57c8fb	-0.21072762
14	0xbe29d067	-0.16583405
15	0x3cd2af22	0.025718275
16	0xbe312c74	-0.17302114
17	0xbd70898c	-0.058724925
18	0xbe8f1db7	-0.27952358
19	0xbdfb24e6	-0.12262897
20	0x3dd30dba	0.103053525
21	0xbd4e324c	-0.050340936
22	0xbe2944ec	-0.16530198
23	0x3daab8a0	0.08335996
24	0xbd4a5903	-0.049401294
25	0x3c180d2a	0.009280482
26	0x3d45bcf4	0.048275903
27	0xbe94ef0e	-0.29088634
28	0xbe8250f2	-0.2545238
29	0xbe02a599	-0.12758483
30	0xbd4559e9	-0.048181448
31	0xbe572963	-0.21011882
32	0x3c13ee3d	0.009028968
33	0x3d885c63	0.06658246
34	0xbe8dc954	-0.27692664
35	0xbe33d145	-0.17560299
36	0xbe43cc9e	-0.19121024
37	0x3d615a1c	0.055017576
38	0x3ddcbb88	0.10777956
39	0xbe150ec3	-0.14556412
40	0xbde66df6	-0.11251442
41	0xbd57884e	-0.052620225
42	0xbde67fca	-0.112548426
43	0x3d4f407d	0.05059861
44	0x3cbc4058	0.0229799
45	0xbdebd685	-0.11515526
46	0xbcd772e0	-0.026299894
47	0x3d9de246	0.07709174
48	0xbd89f588	-0.067362845
49	0xbe846575	-0.25858656
50	0xbe933135	-0.2874848
51	0xbe303acf	-0.17209934
52	0xbe7dda8f	-0.24790405
53	0xbd0088cf	-0.03138047
54	0xbe82d1a5	-0.2555057
55	0x3b2436e3	0.002505713
56	0xbd5da228	-0.054109722
57	0xbe6cd97b	-0.23129837
58	0xbe9d0b7a	-0.30672818
59	0x3c51c320	0.012802869
60	0xbe997860	-0.2997465
61	0xbcbff8d8	-0.023434088
62	0xbe9228f6	-0.28546876
63	0x3c648428	0.013947524
64	0xbe0f6f3f	-0.14007281
65	0x3dfd8afa	0.12380023
66	0xbe96e27f	-0.29469678
67	0xbcd2ddf8	-0.025740609
68	0x3b3dfcc0	0.0028989762
69	0x3dc5fdd2	0.09667553
70	0xbdfecdda	-0.12441607
71	0xbe3e02b4	-0.18555719
72	0x3d86b86c	0.065781444
73	0xbe748058	-0.23877084
74	0x3d1e609f	0.038666364
75	0xbac6caa4	-0.0015166593
76	0xbe8b2ebf	-0.27184102
77	0xbe5b2617	-0.21401249
78	0xbe8910f8	-0.2677076
79	0x3d523923	0.05132402
80	0xbe4afcb8	-0.19822967
81	0xbcab6090	-0.020920068
82	0xbdf509f3	-0.11964788
83	0x3dc86f60	0.09786868
84	0x3d4e61cc	0.050386235
85	0xbdf20f23	-0.11819293
86	0xbe91c525	-0.28470722
87	0xbdf1344e	-0.117775545
88	0xbdb93a3d	-0.09044311
89	0x3d11c807	0.03559115
90	0xbd2ced14	-0.042218283
91	0xbe872481	-0.26395038
92	0xbdca189c	-0.09867975
93	0xbe768f37	-0.2407807
94	0x3dc61332	0.0967163
95	0xbe73006f	-0.23730634
96	0xbdc5cb03	-0.09657862
97	0x3e0b4977	0.13602243
98	0xbe8f11f9	-0.279434
99	0xbe5673a1	-0.20942546
100	0xbe501a14	-0.20322448
101	0xbd09a687	-0.03360608
102	0xbd65991c	-0.05605422
103	0xbe3b8a0c	-0.1831438
104	0xbe8860ac	-0.26636255
105	0x3d6736b4	0.056448653
106	0xbe8be1e6	-0.27320784
107	0x3be49da1	0.0069767986
108	0x3da492dc	0.08035824
109	0xbdd0b9c7	-0.10191684
110	0x3d76ab11	0.060221735
111	0x3db5e6d5	0.08881918
112	0x3bf97580	0.007612884
113	0xbe903f6c	-0.28173387
114	0xbdd7d842	-0.10539295
115	0xbe52cf86	-0.20586976
116	0xbd9ab0e0	-0.075532675
117	0x3da08b34	0.07839051
118	0xbe6c49bd	-0.23075004
119	0x3dac5224	0.084141046
120	0x3ddb9a60	0.10722804
121	0xbe917bbf	-0.28414723
122	0xbe62cb71	-0.22147919
123	0x3df0f8c2	0.11766197
124	0xbdbaecc8	-0.09127194
125	0xbd922c04	-0.071373016
126	0xbe93e6de	-0.28887075
127	0x3d473f6a	0.04864446

fc3.bias f4 [2]
0	0xbd85b8e8	-0.06529409
1	0xbcdd3a05	-0.027005205

exp_avg f4 [32, 4]
0	0x00000004	6e-45
1	0x8000000a	-1.4e-44
2	0x0000000b	1.5e-44
3	0x00000049	1.02e-43
4	0x3ccee68e	0.025256421
5	0x3e3fb4bb	0.18721287
6	0xbcb763ec	-0.022386514
7	0xbe83f85e	-0.25775427
8	0x3c938982	0.018009905
9	0x3df9faaf	0.12206017
10	0xbc3992d3	-0.0113265095
11	0xbe1a9358	-0.1509527
12	0xbb13e137	-0.0022564658
13	0xbd245a28	-0.040125042
14	0x3ba6c45d	0.0050893263
15	0x3d883f4d	0.06652699
16	0x3b3e3eef	0.002902921
17	0x3d226e42	0.03965593
18	0xbb95cdf2	-0.0045716697
19	0xbd753be7	-0.05987158
20	0x3caf21ad	0.021378363
21	0x3e139cfa	0.1441535
22	0xbc7585bf	-0.014985501
23	0xbe3a4e0c	-0.18193835
24	0x3ca2958b	0.019846698
25	0x3e106567	0.14101182
26	0xbc6dd927	-0.014517105
27	0xbe3a43f3	-0.18189983
28	0x3b71c46b	0.0036890756
29	0xbd9e1f7b	-0.07720848
30	0x3c92108c	0.017830156
31	0x3e30249d	0.17201467
32	0x3cb8141a	0.022470523
33	0x3e1a4d19	0.15068473
34	0xbc784c48	-0.015154906
35	0xbe47e176	-0.195196
36	0x3c798438	0.015229277
37	0x3e480bc4	0.19535738
38	0xbca80cc0	-0.020513892
39	0xbe95b7f3	-0.29241905
40	0x3c7be963	0.015375468
41	0x3dde7014	0.10861221
42	0xbc334761	-0.010942311
43	0xbe0e6821	-0.1390691
44	0xbbfa2019	-0.007633221
45	0xbe6ea562	-0.23305276
46	0x3d0561d2	0.03256399
47	0x3ecaac7b	0.39584717
48	0xbb894104	-0.0041886587
49	0xbd978091	-0.07397569
50	0x3c1b9cf3	0.009497869
51	0x3df64990	0.1202575
52	0xbaf4bb03	-0.0018671456
53	0xbcc0422e	-0.023469057
54	0x3b4fb7a2	0.0031695147
55	0x3d1722aa	0.036898293
56	0x3c9d798a	0.019222993
57	0x3e99442f	0.29934832
58	0xbcfe5b40	-0.03104937
59	0xbeec8bf9	-0.4620054
60	0x3cc5db96	0.024152558
61	0x3e1d5182	0.15363124
62	0xbc9b981f	-0.018993435
63	0xbe4d68a8	-0.20059454
64	0x00000000	0.0
65	0x00000000	0.0
66	0x00000000	0.0
67	0x00000000	0.0
68	0x3a224536	0.0006190123
69	0xbd34f229	-0.044176254
70	0x3c66a06d	0.014076334
71	0x3ddd2bcc	0.10799369
72	0xbc8d9024	-0.017280646
73	0xbe6506ff	-0.2236595
74	0x3ce7e167	0.028305722
75	0x3eb286dd	0.34868518
76	0x3d055980	0.032556057
77	0x3e80354b	0.2504066
78	0xbce24859	-0.027622389
79	0xbeade722	-0.33965403
80	0xbbe6c8cb	-0.0070429794
81	0xbe1e953d	-0.15486617
82	0x3cc95204	0.02457524
83	0x3e8a09fd	0.26960745
84	0x3cc4942a	0.023996431
85	0x3e4b3866	0.19845733
86	0xbca3afb6	-0.019981246
87	0xbe895daa	-0.26829273
88	0x3c9cef6d	0.019157136
89	0x3dff6d83	0.124720596
90	0xbc57f037	-0.01317983
91	0xbe1fadf7	-0.15593706
92	0x3aba46bf	0.0014211758
93	0x3a6fe399	0.0009151041
94	0x3a91fb09	0.0011137436
95	0x3ba6034d	0.0050663115
96	0x3c8b04af	0.016970007
97	0x3dd84861	0.1056068
98	0xbc281e59	-0.010261142
99	0xbe030b4b	-0.12797277
100	0x3d1614c7	0.03664091
101	0x3eaef636	0.3417222
102	0xbd141e2d	-0.03616159
103	0xbef8302c	-0.48474252
104	0xbaeb7273	-0.0017963186
105	0xbc7869aa	-0.015161911
106	0x3bfb4ef5	0.0076693245
107	0x3d26e4bb	0.040745478
108	0x3cd58a37	0.026066883
109	0x3e4dd9f3	0.20102672
110	0xbca8c534	-0.020601846
111	0xbe87eaef	-0.26546428
112	0xbac6637b	-0.0015135849
113	0xbc9d7548	-0.019220963
114	0x3b28f927	0.0025783272
115	0x3cf85bcd	0.030317212
116	0x00000000	0.0
117	0x00000000	0.0
118	0x00000000	0.0
119	0x00000000	0.0
120	0x3cde2b2f	0.0271202
121	0x3ea4f457	0.32217667
122	0xbd0bca79	-0.03412864
123	0xbef5b57d	-0.47990027
124	0xb6eaa179	-6.9925413e-06
125	0xb90d91bf	-0.00013501103
126	0xb502da58	-4.8746506e-07
127	0x3915e762	0.00014295944

exp_avg_sq f4 [32, 4]
0	0x301a905a	5.623001e-10
1	0x324d5a5d	1.1953117e-08
2	0x326eb2ad	1.38940495e-08
3	0x35132720	5.48187e-07
4	0x3b1cec36	0.0023944504
5	0x3e9bd456	0.30435437
6	0x3ba48aa9	0.0050214124
7	0x3f43b720	0.764513
8	0x3ab3cf2a	0.0013718356
9	0x3e295aa9	0.1653849
10	0x3b2b083c	0.0026097437
11	0x3ecdb578	0.40177512
12	0x38a305bf	7.773516e-05
13	0x3c68d266	0.014210319
14	0x392a1ce1	0.00016223222
15	0x3d0aeaed	0.03391545
16	0x39463eea	0.00018906189
17	0x3ced0a6d	0.028935635
18	0x39c6641b	0.00037840087
19	0x3d8dee2b	0.069301926
20	0x3afe4714	0.0019399845
21	0x3e73b9bc	0.23801321
22	0x3b74d0bd	0.0037355863
23	0x3f135f3a	0.5756718
24	0x3ac2ef87	0.001487241
25	0x3e3be6e3	0.18349795
26	0x3b3b92e5	0.0028621492
27	0x3ee4200f	0.4455571
28	0x3b9d3aef	0.004798285
29	0x3f3f4fe8	0.747313
30	0x3c1f69ce	0.009729816
31	0x3fe27484	1.7691808
32	0x3ae0ae19	0.0017141729
33	0x3e3d0be2	0.18461564
34	0x3b52aae9	0.0032145327
35	0x3ee2de55	0.4431025
36	0x3ab0d0be	0.0013489944
37	0x3e9e005b	0.30859646
38	0x3b455fa8	0.003011683
39	0x3f3b0e98	0.73069143
40	0x3a540d15	0.00080891076
41	0x3dd302e0	0.10303283
42	0x3ace68c9	0.0015747781
43	0x3e80112c	0.250131
44	0x3b7d947c	0.003869324
45	0x3f3fe377	0.7495646
46	0x3bf8e50c	0.007595664
47	0x3fde4f2c	1.7367911
48	0x39ae9cba	0.00033304637
49	0x3d807af0	0.062734485
50	0x3a2cdee4	0.00065944926
51	0x3e166723	0.14687781
52	0x38856b3b	6.3619074e-05
53	0x3c4c1127	0.012455261
54	0x39130d42	0.00014023951
55	0x3cec63b8	0.028856143
56	0x3bf5a3e4	0.007496344
57	0x3fa88421	1.3165323
58	0x3c70e3cd	0.014702749
59	0x4046bca0	3.1052628
60	0x3adb1f42	0.001671769
61	0x3e602115	0.2188762
62	0x3b50b0ea	0.003184373
63	0x3f04713c	0.5173528
64	0x00000000	0.0
65	0x00000000	0.0
66	0x00000000	0.0
67	0x00000000	0.0
68	0x3b49908f	0.003075633
69	0x3ecae8a2	0.3963061
70	0x3bc50c36	0.0060134185
71	0x3f72d888	0.9486165
72	0x3b26ef4c	0.0025472222
73	0x3eec761a	0.46183854
74	0x3ba54738	0.0050438903
75	0x3f8c9e69	1.0985843
76	0x3b8a2a46	0.004216465
77	0x3f1b10a5	0.6057227
78	0x3c04fbce	0.008116676
79	0x3fbbf421	1.4683877
80	0x3b0d300a	0.0021543526
81	0x3ebe0fc2	0.37121397
82	0x3b8b5286	0.004251781
83	0x3f5e2790	0.8677912
84	0x3b2ad249	0.002606528
85	0x3eb5cbf6	0.35507172
86	0x3ba9546f	0.005167536
87	0x3f5e4a25	0.86831886
88	0x3ac8cab6	0.0015319202
89	0x3e3cae2c	0.18425816
90	0x3b4086d2	0.0029377234
91	0x3ee4382c	0.44574106
92	0x36c99c1e	6.0084412e-06
93	0x3a4914e6	0.00076706556
94	0x36c45b60	5.8518926e-06
95	0x3abab726	0.0014245256
96	0x3ab3ae3c	0.0013708542
97	0x3e24fe59	0.16112651
98	0x3b26c1b6	0.002544505
99	0x3ec723a9	0.38894394
100	0x3bc479a1	0.0059959446
101	0x3f7f675a	0.99767077
102	0x3c45cac8	0.012072273
103	0x4019309a	2.3935914
104	0x3b550fa1	0.0032510536
105	0x3edacd25	0.42734638
106	0x3bb360a0	0.005474165
107	0x3f7a50db	0.97779626
108	0x3b7af9fb	0.0038295973
109	0x3f044cbf	0.51679605
110	0x3bffafca	0.007802938
111	0x3fa28b96	1.2698848
112	0x387a0d5f	5.9617098e-05
113	0x3c378a82	0.011202456
114	0x38fa8130	0.00011944992
115	0x3cd305e0	0.025759637
116	0x00000000	0.0
117	0x00000000	0.0
118	0x00000000	0.0
119	0x00000000	0.0
120	0x3b611f34	0.0034350874
121	0x3f3041d8	0.6885047
122	0x3be6d806	0.007044795
123	0x3fd1ce4f	1.6391085
124	0x32f67246	2.8690135e-08
125	0x36c843e8	5.96837e-06
126	0x31e6968b	6.7109958e-09
127	0x36e567c7	6.836813e-06

exp_avg f4 [32]
0	0x0000003f	8.8e-44
1	0xbfccf663	-1.6012691
2	0xbfc39ed5	-1.5282847
3	0xbdce05eb	-0.100597225
4	0x3d199d36	0.037503444
5	0xbfe471a8	-1.7847185
6	0xbfc72bf2	-1.5560286
7	0xbfd4c9b5	-1.6624056
8	0xbfe06589	-1.7530986
9	0xbed95116	-0.42444676
10	0xbf9c6675	-1.2218767
11	0xbf4b1d1d	-0.793413
12	0xbe2d811d	-0.16943784
13	0x3ce0b272	0.02742884
14	0x3eab733c	0.33486354
15	0xbfd6c722	-1.677952
16	0x00000000	0.0
17	0xbfab55dd	-1.3385578
18	0x3e8ad648	0.2711661
19	0xbff2b29d	-1.8960758
20	0xbf2c3362	-0.67265904
21	0xbfe42322	-1.7823222
22	0xbfcf4eab	-1.6195883
23	0xbc5be328	-0.0134208575
24	0xbfc402f2	-1.5313399
25	0xbfdc180e	-1.7194841
26	0xbf9a061f	-1.2033118
27	0xc00d9f24	-2.2128382
28	0x3cce2483	0.025163895
29	0x00000000	0.0
30	0xbf50e0a6	-0.81592786
31	0xb889e460	-6.575207e-05

exp_avg_sq f4 [32]
0	0x34e88fdb	4.3318036e-07
1	0x4184ea6b	16.614462
2	0x41747563	15.278659
3	0x3d5b4bca	0.053539075
4	0x3ce45f18	0.027877375
5	0x41ab5f9b	21.421682
6	0x417dd7ed	15.865216
7	0x418cee26	17.616283
8	0x41930c2b	18.380941
9	0x3f88d541	1.069008
10	0x410cfb02	8.811281
11	0x40aabb61	5.3353734
12	0x3e851425	0.25991932
13	0x3cb9769e	0.022639569
14	0x3fbee8fd	1.4914852
15	0x418ee1d7	17.860273
16	0x00000000	0.0
17	0x4129e725	10.618932
18	0x3f0eb0d0	0.55738544
19	0x41bbd647	23.479628
20	0x404c0174	3.1875887
21	0x41a80043	21.000128
22	0x418895ef	17.07321
23	0x3adfde82	0.0017079862
24	0x41753cbf	15.327331
25	0x41922a09	18.270525
26	0x40f856e8	7.7606087
27	0x420752d1	33.830875
28	0x3cab8eb4	0.02094207
29	0x00000000	0.0
30	0x40887ccf	4.2652354
31	0x35bdfa94	1.4154525e-06

exp_avg f4 [64, 32]
0	0x00000004	6e-45
1	0xbd862819	-0.06550617
2	0xbe37753c	-0.17915815
3	0xbce5ec8f	-0.028066901
4	0xbbaf52ed	-0.0053504617
5	0xbdddf1e9	-0.10837156
6	0xbdff5004	-0.12466434
7	0xbe018b0b	-0.12650697
8	0xbd352a59	-0.04422984
9	0xbdf528b9	-0.11970658
10	0xbd97d108	-0.074129164
11	0xbd9b8741	-0.07594157
12	0xbd6f3757	-0.058402386
13	0xbc3176ea	-0.010831574
14	0xbc1b4048	-0.009475775
15	0xbd5348ba	-0.05158303
16	0x00000000	0.0
17	0xbe0989b1	-0.13431431
18	0xbcbbcfc8	-0.022926226
19	0xbe2aa5b0	-0.16664767
20	0xbda73e34	-0.08166161
21	0xbe26db00	-0.1629448
22	0xbd968c16	-0.07350938
23	0xbb07ce8f	-0.0020722484
24	0xbe22fb86	-0.15916261
25	0xbe77719e	-0.24164435
26	0xbd5cec49	-0.053936277
27	0xbe06fcfc	-0.13182443
28	0xbd589439	-0.05287573
29	0x00000000	0.0
30	0xbe466c06	-0.19377145
31	0x372cd263	1.0300983e-05
32	0x00000000	0.0
33	0x00000000	0.0
34	0x00000000	0.0
35	0x00000000	0.0
36	0x00000000	0.0
37	0x00000000	0.0
38	0x00000000	0.0
39	0x00000000	0.0
40	0x00000000	0.0
41	0x00000000	0.0
42	0x00000000	0.0
43	0x00000000	0.0
44	0x00000000	0.0
45	0x00000000	0.0
46	0x00000000	0.0
47	0x00000000	0.0
48	0x00000000	0.0
49	0x00000000	0.0
50	0x00000000	0.0
51	0x00000000	0.0
52	0x00000000	0.0
53	0x00000000	0.0
54	0x00000000	0.0
55	0x00000000	0.0
56	0x00000000	0.0
57	0x00000000	0.0
58	0x00000000	0.0
59	0x00000000	0.0
60	0x00000000	0.0
61	0x00000000	0.0
62	0x00000000	0.0
63	0x00000000	0.0
64	0x00000004	6e-45
65	0xbda0113e	-0.07815789
66	0xbe8080b6	-0.250982
67	0xbd44b53e	-0.04802441
68	0xbc0fb14c	-0.008770298
69	0xbe0a3636	-0.13497242
70	0xbe314f82	-0.17315486
71	0xbe4506ae	-0.1924083
72	0xbd7cc278	-0.061708897
73	0xbe028925	-0.12747629
74	0xbdc9608c	-0.09832868
75	0xbe02e07e	-0.1278095
76	0xbdd1d7d4	-0.10246244
77	0xbc451181	-0.012028099
78	0xbc887d0d	-0.016661191
79	0xbd83b3c7	-0.06430774
80	0x00000000	0.0
81	0xbe4eb4a6	-0.201861
82	0xbcd37361	-0.025811853
83	0xbe47fef6	-0.19530854
84	0xbe0ad3a3	-0.13557296
85	0xbe466a9e	-0.19376609
86	0xbdc9f096	-0.09860341
87	0xbaedad58	-0.0018133326
88	0xbe62b4d5	-0.22139294
89	0xbe8ca544	-0.27469838
90	0xbda9f9e0	-0.08299613
91	0xbe210238	-0.15723503
92	0xbd6934e0	-0.05693519
93	0x00000000	0.0
94	0xbe58fcfa	-0.21190253
95	0x37b68a53	2.1760503e-05
96	0x00000000	0.0
97	0x00000000	0.0
98	0x00000000	0.0
99	0x00000000	0.0
100	0x00000000	0.0
101	0x00000000	0.0
102	0x00000000	0.0
103	0x00000000	0.0
104	0x00000000	0.0
105	0x00000000	0.0
106	0x00000000	0.0
107	0x00000000	0.0
108	0x00000000	0.0
109	0x00000000	0.0
110	0x00000000	0.0
111	0x00000000	0.0
112	0x00000000	0.0
113	0x00000000	0.0
114	0x00000000	0.0
115	0x00000000	0.0
116	0x00000000	0.0
117	0x00000000	0.0
118	0x00000000	0.0
119	0x00000000	0.0
120	0x00000000	0.0
121	0x00000000	0.0
122	0x00000000	0.0
123	0x00000000	0.0
124	0x00000000	0.0
125	0x00000000	0.0
126	0x00000000	0.0
127	0x00000000	0.0
128	0x00000000	0.0
129	0x08adba59	1.0455869e-33
130	0x00000000	0.0
131	0x00000000	0.0
132	0x00000000	0.0
133	0x090560cd	1.6054808e-33
134	0x05e8e075	2.1899628e-35
135	0x00000000	0.0
136	0x07704762	1.8076571e-34
137	0x09e09227	5.406348e-33
138	0x082bc08f	5.168479e-34
139	0x00000000	0.0
140	0x00000000	0.0
141	0x09083912	1.6397239e-33
142	0x00000000	0.0
143	0x08b04e0c	1.0610963e-33
144	0x00000000	0.0
145	0x00000000	0.0
146	0x09326e2e	2.1477777e-33
147	0x0995f210	3.609808e-33
148	0x00000000	0.0
149	0x09815f08	3.1144987e-33
150	0x07fe2d46	3.8244282e-34
151	0x07a1a68b	2.4322473e-34
152	0x06fdf385	9.552584e-35
153	0x0a01d389	6.2509094e-33
154	0x00000000	0.0
155	0x093f7b1e	2.3048678e-33
156	0x09befb94	4.597742e-33
157	0x00000000	0.0
158	0x0a075eb1	6.517823e-33
159	0x00000000	0.0
160	0x00000000	0.0
161	0x00000004	6e-45
162	0x00000004	6e-45
163	0x00000004	6e-45
164	0x00000000	0.0
165	0x00000004	6e-45
166	0x00000004	6e-45
167	0x00000004	6e-45
168	0x00000004	6e-45
169	0x00000004	6e-45
170	0x00000004	6e-45
171	0x00000004	6e-45
172	0x00000004	6e-45
173	0x00000000	0.0
174	0x00000000	0.0
175	0x00000004	6e-45
176	0x00000000	0.0
177	0x00000004	6e-45
178	0x00000004	6e-45
179	0x00000004	6e-45
180	0x00000004	6e-45
181	0x00000004	6e-45
182	0x00000004	6e-45
183	0x00000000	0.0
184	0x00000004	6e-45
185	0x00000004	6e-45
186	0x00000004	6e-45
187	0x00000004	6e-45
188	0x00000004	6e-45
189	0x00000000	0.0
190	0x00000004	6e-45
191	0x00000000	0.0
192	0x00000000	0.0
193	0x00000000	0.0
194	0x00000000	0.0
195	0x00000000	0.0
196	0x00000000	0.0
197	0x00000000	0.0
198	0x00000000	0.0
199	0x00000000	0.0
200	0x00000000	0.0
201	0x00000000	0.0
202	0x00000000	0.0
203	0x00000000	0.0
204	0x00000000	0.0
205	0x00000000	0.0
206	0x00000000	0.0
207	0x00000000	0.0
208	0x00000000	0.0
209	0x00000000	0.0
210	0x00000000	0.0
211	0x00000000	0.0
212	0x00000000	0.0
213	0x00000000	0.0
214	0x00000000	0.0
215	0x00000000	0.0
216	0x00000000	0.0
217	0x00000000	0.0
218	0x00000000	0.0
219	0x00000000	0.0
220	0x00000000	0.0
221	0x00000000	0.0
222	0x00000000	0.0
223	0x00000000	0.0
224	0x00000004	6e-45
225	0xbd8a959c	-0.06766817
226	0xbe49b19e	-0.19696662
227	0xbd09caa2	-0.03364051
228	0xbbce1ed3	-0.0062902956
229	0xbde8fc3f	-0.11376237
230	0xbe0bdbe1	-0.13658096
231	0xbe1363f3	-0.14393596
232	0xbd46d961	-0.048547152
233	0xbdf3370b	-0.11875733
234	0xbda34b56	-0.079733536
235	0xbdb902dd	-0.09033749
236	0xbd9103f8	-0.07080835
237	0xbc32a50d	-0.010903609
238	0xbc3c6d77	-0.011500708
239	0xbd5de1c6	-0.054170392
240	0x00000000	0.0
241	0xbe1bb1b1	-0.15204503
242	0xbcbdfb61	-0.023191156
243	0xbe2f20ae	-0.1710231
244	0xbdc5b9f5	-0.09654609
245	0xbe2c269f	-0.16811608
246	0xbda2a67c	-0.079419106
247	0xbafd0ba8	-0.0019305842
248	0xbe32ab2e	-0.17448112
249	0xbe7b28e1	-0.24527313
250	0xbd7c9dff	-0.061674114
251	0xbe0b6d72	-0.13615969
252	0xbd57aefe	-0.05265712
253	0x00000000	0.0
254	0xbe46a9c9	-0.19400705
255	0x37653fca	1.3664316e-05

exp_avg_sq f4 [64, 32]
0	0x2f7edd07	2.317969e-10
1	0x3cf9d0bf	0.030495046
2	0x3e9aaa42	0.3020802
3	0x3c3e9fd1	0.011634783
4	0x3a20a3bc	0.0006127914
5	0x3db9e404	0.09076694
6	0x3e1028bf	0.14078043
7	0x3e2d4f5b	0.16924803
8	0x3c5b115e	0.01337084
9	0x3df8d33a	0.12149663
10	0x3d328d89	0.04359201
11	0x3d9d1739	0.07670445
12	0x3d5b678f	0.053565558
13	0x3b5ccca2	0.0033691307
14	0x3af60831	0.0018770752
15	0x3c80fbc5	0.015745053
16	0x00000000	0.0
17	0x3e428723	0.18996863
18	0x3c117b14	0.008879442
19	0x3e642b02	0.22282031
20	0x3db3b975	0.087756075
21	0x3e5bf6ee	0.21480915
22	0x3d2b933f	0.04188847
23	0x37b67f23	2.1755293e-05
24	0x3e6c4e17	0.23076664
25	0x3eed07a6	0.46294898
26	0x3cff37c7	0.031154526
27	0x3e105b8a	0.1409742
28	0x3d2fb689	0.04289869
29	0x00000000	0.0
30	0x3e969686	0.29411715
31	0x33b86a69	8.5875236e-08
32	0x00000000	0.0
33	0x00000000	0.0
34	0x00000000	0.0
35	0x00000000	0.0
36	0x00000000	0.0
37	0x00000000	0.0
38	0x00000000	0.0
39	0x00000000	0.0
40	0x00000000	0.0
41	0x00000000	0.0
42	0x00000000	0.0
43	0x00000000	0.0
44	0x00000000	0.0
45	0x00000000	0.0
46	0x00000000	0.0
47	0x00000000	0.0
48	0x00000000	0.0
49	0x00000000	0.0
50	0x00000000	0.0
51	0x00000000	0.0
52	0x00000000	0.0
53	0x00000000	0.0
54	0x00000000	0.0
55	0x00000000	0.0
56	0x00000000	0.0
57	0x00000000	0.0
58	0x00000000	0.0
59	0x00000000	0.0
60	0x00000000	0.0
61	0x00000000	0.0
62	0x00000000	0.0
63	0x00000000	0.0
64	0x30c7790f	1.4513563e-09
65	0x3d31eecb	0.04344062
66	0x3f157c79	0.58393055
67	0x3ceaae9b	0.028647712
68	0x3aeafc81	0.0017928035
69	0x3e128a3f	0.14310549
70	0x3e899f9f	0.26879594
71	0x3ebb0d41	0.3653355
72	0x3cd251b0	0.025673717
73	0x3e122555	0.14272054
74	0x3d9a491e	0.07533477
75	0x3e3a80b0	0.18213153
76	0x3e09f8ac	0.13473767
77	0x3b814d6c	0.003945997
78	0x3bb192e2	0.005419121
79	0x3cc70a9c	0.024297051
80	0x00000000	0.0
81	0x3ecf2dff	0.4046478
82	0x3c2116a7	0.009832061
83	0x3e9fff13	0.31249294
84	0x3e51955d	0.20467134
85	0x3e9e48ce	0.3091492
86	0x3d9b544b	0.07584437
87	0x380069f8	3.061627e-05
88	0x3ee2e416	0.4431464
89	0x3f1fb948	0.6239209
90	0x3d8bfd6c	0.06835446
91	0x3e508c96	0.2036613
92	0x3d4a0bb6	0.049327575
93	0x00000000	0.0
94	0x3ebba580	0.36649704
95	0x33bcc8dd	8.790969e-08
96	0x00000000	0.0
97	0x00000000	0.0
98	0x00000000	0.0
99	0x00000000	0.0
100	0x00000000	0.0
101	0x00000000	0.0
102	0x00000000	0.0
103	0x00000000	0.0
104	0x00000000	0.0
105	0x00000000	0.0
106	0x00000000	0.0
107	0x00000000	0.0
108	0x00000000	0.0
109	0x00000000	0.0
110	0x00000000	0.0
111	0x00000000	0.0
112	0x00000000	0.0
113	0x00000000	0.0
114	0x00000000	0.0
115	0x00000000	0.0
116	0x00000000	0.0
117	0x00000000	0.0
118	0x00000000	0.0
119	0x00000000	0.0
120	0x00000000	0.0
121	0x00000000	0.0
122	0x00000000	0.0
123	0x00000000	0.0
124	0x00000000	0.0
125	0x00000000	0.0
126	0x00000000	0.0
127	0x00000000	0.0
128	0x00000000	0.0
129	0x308c08f2	1.0188883e-09
130	0x00000000	0.0
131	0x00000000	0.0
132	0x00000000	0.0
133	0x30a41b15	1.1940268e-09
134	0x2935dced	4.0381696e-14
135	0x00000000	0.0
136	0x2c419b96	2.7513317e-12
137	0x32ae737f	2.0308788e-08
138	0x2f51197e	1.9017496e-10
139	0x00000000	0.0
140	0x00000000	0.0
141	0x30f0691c	1.7492172e-09
142	0x00000000	0.0
143	0x2fb8a3ca	3.3585784e-10
144	0x00000000	0.0
145	0x00000000	0.0
146	0x3185d90f	3.895486e-09
147	0x3216e485	8.7831085e-09
148	0x00000000	0.0
149	0x31ec225a	6.8724093e-09
150	0x2e14c459	3.3825696e-11
151	0x2caf41c5	4.981101e-12
152	0x2b584476	7.6833624e-13
153	0x32cbbca6	2.3718098e-08
154	0x00000000	0.0
155	0x31896e9a	3.9997987e-09
156	0x32860f42	1.5606592e-08
157	0x00000000	0.0
158	0x32e8affc	2.7088383e-08
159	0x00000000	0.0
160	0x00000000	0.0
161	0x35a3cfbd	1.2204906e-06
162	0x3926169b	0.00015839415
163	0x36cd51f4	6.1190167e-06
164	0x00000000	0.0
165	0x37bea07a	2.2724493e-05
166	0x38466380	4.7299545e-05
167	0x384674ec	4.731577e-05
168	0x338dbbec	6.600007e-08
169	0x362493ac	2.452386e-06
170	0x37b6b7cb	2.1781676e-05
171	0x36c6cf1e	5.9249714e-06
172	0x365039bd	3.1028023e-06
173	0x00000000	0.0
174	0x00000000	0.0
175	0x2e65fca0	5.2292948e-11
176	0x00000000	0.0
177	0x38749f9b	5.8322777e-05
178	0x2f6a43c8	2.1306257e-10
179	0x3873548a	5.8014448e-05
180	0x3722835e	9.686539e-06
181	0x387cab91	6.0241266e-05
182	0x36c05049	5.7313923e-06
183	0x00000000	0.0
184	0x38e7d1cd	0.00011054017
185	0x39121bf4	0.00013934058
186	0x352b6a36	6.385702e-07
187	0x37fcd14c	3.0138202e-05
188	0x346837f0	2.1627034e-07
189	0x00000000	0.0
190	0x3803be11	3.1409847e-05
191	0x00000000	0.0
192	0x00000000	0.0
193	0x00000000	0.0
194	0x00000000	0.0
195	0x00000000	0.0
196	0x00000000	0.0
197	0x00000000	0.0
198	0x00000000	0.0
199	0x00000000	0.0
200	0x00000000	0.0
201	0x00000000	0.0
202	0x00000000	0.0
203	0x00000000	0.0
204	0x00000000	0.0
205	0x00000000	0.0
206	0x00000000	0.0
207	0x00000000	0.0
208	0x00000000	0.0
209	0x00000000	0.0
210	0x00000000	0.0
211	0x00000000	0.0
212	0x00000000	0.0
213	0x00000000	0.0
214	0x00000000	0.0
215	0x00000000	0.0
216	0x00000000	0.0
217	0x00000000	0.0
218	0x00000000	0.0
219	0x00000000	0.0
220	0x00000000	0.0
221	0x00000000	0.0
222	0x00000000	0.0
223	0x00000000	0.0
224	0x2fe7b596	4.214768e-10
225	0x3d027230	0.03184718
226	0x3eb40857	0.35162613
227	0x3c73dc70	0.014884099
228	0x3a5fc419	0.0008535996
229	0x3dc8bb39	0.09801335
230	0x3e2734dd	0.1632876
231	0x3e52dd05	0.20592125
232	0x3c8023bd	0.015642041
233	0x3df265ef	0.118358485
234	0x3d47e785	0.04880478
235	0x3dc729b6	0.097247526
236	0x3d8e4f26	0.0694869
237	0x3b54e236	0.0032483465
238	0x3b2b22b9	0.0026113226
239	0x3c8af241	0.016961219
240	0x00000000	0.0
241	0x3e6b48d4	0.22977
242	0x3c0b47dd	0.00850102
243	0x3e6bd0cf	0.23028873
244	0x3de1f615	0.110332645
245	0x3e657d83	0.2241116
246	0x3d438ac8	0.047739774
247	0x37b2c510	2.1311018e-05
248	0x3e89344f	0.2679772
249	0x3ef164af	0.47147128
250	0x3d1cafec	0.03825371
251	0x3e16e792	0.14736775
252	0x3d295d18	0.041348547
253	0x00000000	0.0
254	0x3e95884e	0.29205555
255	0x33a671ee	7.750701e-08

exp_avg f4 [64]
0	0xbe9914a2	-0.29898554
1	0x00000000	0.0
2	0xbec57242	-0.38563734
3	0x00000000	0.0
4	0x098fc437	3.4610517e-33
5	0x00000004	6e-45
6	0x00000000	0.0
7	0xbea2dd27	-0.3180935
8	0x215d9fda	7.5089274e-19
9	0xbea17cfc	-0.31540668
10	0x00000004	6e-45
11	0x00000004	6e-45
12	0xbe8b864c	-0.27250898
13	0xbea2ce48	-0.31798005
14	0xbea735a1	-0.32658103
15	0xb83f3f68	-4.5597e-05
16	0xbe8e373a	-0.2777651
17	0x00000000	0.0
18	0xbe9757a8	-0.29559064
19	0x00000000	0.0
20	0x3c0d7b18	0.008635305
21	0xbdfdb34e	-0.12387715
22	0xbeada607	-0.3391573
23	0x00000000	0.0
24	0xbdd27be7	-0.10277539
25	0x3b8b8708	0.0042580403
26	0x00000000	0.0
27	0xbed4d911	-0.4157186
28	0xbe85985c	-0.26092803
29	0xbe8e0e95	-0.277455
30	0xbb2ab6c2	-0.0026048874
31	0xbeabd3eb	-0.33560118
32	0x26871afd	9.374822e-16
33	0x3cb56e8e	0.022147443
34	0xbed5be7e	-0.41746897
35	0xbe93b485	-0.28848663
36	0xbe97381c	-0.29534996
37	0x14748b2f	1.2346301e-26
38	0x00000000	0.0
39	0xbe7be30c	-0.2459833
40	0xbe927cef	-0.28610942
41	0xbabd0b9e	-0.0014423018
42	0xbe953fe5	-0.2915031
43	0x00000004	6e-45
44	0x00000000	0.0
45	0xbe22bd46	-0.15892515
46	0x00000004	6e-45
47	0x1290d01d	9.1389815e-28
48	0x00000000	0.0
49	0xbecfafe2	-0.40563875
50	0xbe94a736	-0.29033822
51	0xbe91027e	-0.28322214
52	0xbe73b197	-0.23798214
53	0xba29fbb5	-0.00064843456
54	0xbeba4c78	-0.36386466
55	0x00000004	6e-45
56	0x00000004	6e-45
57	0xbec66294	-0.38747084
58	0xbec9fa49	-0.39448765
59	0x00000000	0.0
60	0xbe93a8be	-0.28839678
61	0x00000000	0.0
62	0xbedcab8a	-0.43099624
63	0x00000004	6e-45

exp_avg_sq f4 [64]
0	0x3f56aece	0.8386048
1	0x00000000	0.0
2	0x3fb52412	1.4151633
3	0x00000000	0.0
4	0x31ca7d2b	5.8932037e-09
5	0x3a30f7b9	0.0006750781
6	0x00000000	0.0
7	0x3f6c939e	0.92412746
8	0x30f9b999	1.8169884e-09
9	0x3f67d71c	0.90562606
10	0x3a1ce902	0.00059856486
11	0x3053343c	7.683558e-10
12	0x3f2164c0	0.6304436
13	0x3f6c6521	0.9234181
14	0x3f76ec63	0.9645445
15	0x38876188	6.455468e-05
16	0x3f239adb	0.63908166
17	0x00000000	0.0
18	0x3f514b68	0.81755686
19	0x00000000	0.0
20	0x3ba3da71	0.0050004055
21	0x3dac64fc	0.08417699
22	0x3f82763e	1.0192335
23	0x00000000	0.0
24	0x3d82675d	0.06367371
25	0x3b1885b2	0.0023273048
26	0x00000000	0.0
27	0x3fd738b1	1.6814176
28	0x3f1c7cbd	0.61127836
29	0x3f28de78	0.6596446
30	0x399933b5	0.0002922096
31	0x3f85c4f1	1.0450727
32	0x334c0a72	4.750695e-08
33	0x3c4f19c1	0.012640418
34	0x3fda951c	1.7076755
35	0x3f394158	0.7236533
36	0x3f4c0ac8	0.7970395
37	0x35e87de9	1.7321992e-06
38	0x00000000	0.0
39	0x3f024e78	0.50900984
40	0x3f31b0fd	0.6941069
41	0x3a17172d	0.00057636463
42	0x3f3d6daa	0.7399546
43	0x36ab8a9f	5.1123347e-06
44	0x00000000	0.0
45	0x3e0b4e82	0.13604167
46	0x3a0214ef	0.0004962226
47	0x3285d564	1.5580277e-08
48	0x00000000	0.0
49	0x3fc97643	1.5739216
50	0x3f4544a5	0.7705787
51	0x3f35df18	0.7104354
52	0x3f02ee8b	0.5114524
53	0x3b0789df	0.0020681543
54	0x3fa1b31e	1.2632787
55	0x2e9d774f	7.160727e-11
56	0x3415afe5	1.3940696e-07
57	0x3fb6daa8	1.4285479
58	0x3fbe5df1	1.4872419
59	0x00000000	0.0
60	0x3f446905	0.7672275
61	0x00000000	0.0
62	0x3fe55b5a	1.7918503
63	0x3a41754b	0.0007379844

exp_avg f4 [2, 64]
0	0x3fb0e7e0	1.3820763
1	0x00000000	0.0
2	0x3f83a54d	1.0284821
3	0x00000000	0.0
4	0x8772b9ae	-1.8260623e-34
5	0x00000004	6e-45
6	0x00000000	0.0
7	0x3f9788b9	1.18386
8	0x00000000	0.0
9	0x3f7c75d7	0.9861731
10	0x00000004	6e-45
11	0x00000000	0.0
12	0x3f744d4f	0.95430464
13	0x3f8bf153	1.0933021
14	0x3fa0fc63	1.2577022
15	0xb30b87d9	-3.2487012e-08
16	0x3f3d0c97	0.73847336
17	0x00000000	0.0
18	0x3f892159	1.0713302
19	0x00000000	0.0
20	0x3bc50460	0.0060124844
21	0x3ec8ed47	0.39243528
22	0x3f7feb27	0.9996819
23	0x00000000	0.0
24	0x3ef0c2ed	0.47023717
25	0x3c369d84	0.011145953
26	0x00000000	0.0
27	0x3f75df3a	0.9604374
28	0x3f9f5631	1.2448179
29	0x3f9f4b37	1.2444829
30	0x3dd3596a	0.10319789
31	0x3f81e92e	1.0149286
32	0x25ac5248	2.9893e-16
33	0x3ccc4b82	0.024938349
34	0x3f8f7304	1.1206975
35	0x3f96bc91	1.1776296
36	0x3fad06fd	1.3517758
37	0x00000004	6e-45
38	0x00000000	0.0
39	0x3f9416c7	1.1569451
40	0x3fa5c16c	1.2949653
41	0x3b16f11a	0.0023031891
42	0x3f91d06c	1.139173
43	0x00000004	6e-45
44	0x00000000	0.0
45	0x3ec14809	0.3775027
46	0x00000004	6e-45
47	0x00000000	0.0
48	0x00000000	0.0
49	0x3f88f034	1.0698304
50	0x3f953f47	1.1659936
51	0x3f9d528e	1.2290819
52	0x3f65cf46	0.897694
53	0x3a04058a	0.0005036226
54	0x3f8bdb59	1.0926315
55	0x80000004	-6e-45
56	0x00000000	0.0
57	0x3f6fceb6	0.9367479
58	0x3f8dcf8b	1.1078962
59	0x00000000	0.0
60	0x3f9bbaae	1.2166345
61	0x00000000	0.0
62	0x3f8acfc5	1.0844656
63	0x00000004	6e-45
64	0x3fc25b78	1.5184164
65	0x00000000	0.0
66	0x3f87d41a	1.0611603
67	0x00000000	0.0
68	0x00000000	0.0
69	0x00000004	6e-45
70	0x00000000	0.0
71	0x3fa20734	1.2658448
72	0x207b8687	2.1305038e-19
73	0x3fa17570	1.2613964
74	0x00000004	6e-45
75	0x80000004	-6e-45
76	0x3f806862	1.0031855
77	0x3fa11294	1.2583795
78	0x3fba3394	1.454699
79	0xb872bcb6	-5.7873047e-05
80	0x3f7dae13	0.9909374
81	0x00000000	0.0
82	0x3fa1682e	1.2609918
83	0x00000000	0.0
84	0x3c888bde	0.016668256
85	0x3f0cea75	0.55045253
86	0x3f86d628	1.0534105
87	0x00000000	0.0
88	0x3f0c14c9	0.54719216
89	0x3c3de938	0.011591248
90	0x00000000	0.0
91	0x3f8237ed	1.0173317
92	0x3fac81e4	1.347714
93	0x3faecb88	1.3655863
94	0x3d490ced	0.049084593
95	0x3f9ddf4f	1.2333773
96	0x80000004	-6e-45
97	0x3ca6bf3e	0.020354863
98	0x3f954735	1.1662356
99	0x3fa0e557	1.2569989
100	0x3fc2fd70	1.5233593
101	0x118ba1f9	2.2030157e-28
102	0x00000000	0.0
103	0x3fa1c1fe	1.2637327
104	0x3faef13e	1.3667371
105	0x38b97c32	8.8446206e-05
106	0x3f9eb3cb	1.2398618
107	0x00000004	6e-45
108	0x00000000	0.0
109	0x3ebc8133	0.3681732
110	0x00000004	6e-45
111	0x118cb22d	2.2197915e-28
112	0x00000000	0.0
113	0x3f8682f6	1.0508716
114	0x3f9c8a5f	1.2229728
115	0x3fac451f	1.3458594
116	0x3f8448b4	1.0334687
117	0xa79ed0cd	-4.408019e-15
118	0x3f89a0a3	1.0752147
119	0x00000000	0.0
120	0x00000004	6e-45
121	0x3f89e0da	1.0771744
122	0x3f8cad1e	1.0990331
123	0x00000000	0.0
124	0x3f99aef0	1.2006512
125	0x00000000	0.0
126	0x3f8532c4	1.0406117
127	0x00000004	6e-45

exp_avg_sq f4 [2, 64]
0	0x419636a2	18.776676
1	0x00000000	0.0
2	0x411113f9	9.067376
3	0x00000000	0.0
4	0x2dcf373f	2.355771e-11
5	0x372c6cf4	1.02773665e-05
6	0x00000000	0.0
7	0x41459ad2	12.350298
8	0x00000000	0.0
9	0x411c55f1	9.770982
10	0x3978c27c	0.00023723574
11	0x00000000	0.0
12	0x40f82799	7.7548337
13	0x412e22e4	10.883518
14	0x41712cac	15.073406
15	0x36b341a6	5.342258e-06
16	0x40902d10	4.505501
17	0x00000000	0.0
18	0x412a88bc	10.658382
19	0x00000000	0.0
20	0x3b3f90bd	0.0029230558
21	0x3f8866dc	1.065639
22	0x4106dfad	8.429608
23	0x00000000	0.0
24	0x3fd49d00	1.6610413
25	0x3ca5a3ac	0.020219646
26	0x00000000	0.0
27	0x40f8f763	7.7801986
28	0x416a2343	14.633609
29	0x416941a6	14.578527
30	0x3cd33ee7	0.02578683
31	0x4116eefa	9.433344
32	0x30435427	7.1060174e-10
33	0x3d212eda	0.03935132
34	0x412ffe40	10.999573
35	0x4146cd7a	12.425165
36	0x41912cb5	18.14683
37	0x36225f34	2.4195297e-06
38	0x00000000	0.0
39	0x41453b4e	12.326979
40	0x41720bb7	15.12786
41	0x3ae355b5	0.0017344268
42	0x41447344	12.278141
43	0x341ff4b5	1.4897053e-07
44	0x00000000	0.0
45	0x3f2ea3c3	0.6821863
46	0x3a88289c	0.0010388079
47	0x00000000	0.0
48	0x00000000	0.0
49	0x4117eb1b	9.494899
50	0x413d379a	11.826075
51	0x4163b3ed	14.231427
52	0x40e32b1e	7.0990133
53	0x3b941343	0.0045188977
54	0x4121eb9c	10.120022
55	0x2d875d57	1.5389174e-11
56	0x00000000	0.0
57	0x40f5f2b0	7.685875
58	0x41270bb2	10.440355
59	0x00000000	0.0
60	0x414a1c8b	12.6319685
61	0x00000000	0.0
62	0x4119b076	9.605581
63	0x3a97197c	0.0011527981
64	0x4192dcc3	18.357794
65	0x00000000	0.0
66	0x40fd7f52	7.921792
67	0x00000000	0.0
68	0x00000000	0.0
69	0x3716b76b	8.983402e-06
70	0x00000000	0.0
71	0x413a8f92	11.660051
72	0x2f20d3e0	1.4627188e-10
73	0x41423cb4	12.13982
74	0x39e06f67	0.0004280761
75	0x2da95747	1.9251835e-11
76	0x40e02cbf	7.005462
77	0x413b115e	11.69174
78	0x41841291	16.509066
79	0x36e1dcdc	6.731234e-06
80	0x40cecc29	6.462422
81	0x00000000	0.0
82	0x413e236d	11.883649
83	0x00000000	0.0
84	0x3c929f58	0.017898247
85	0x3fca39e6	1.5798919
86	0x40f77de7	7.734119
87	0x00000000	0.0
88	0x3fd4b862	1.6618769
89	0x3c0bffaa	0.008544842
90	0x00000000	0.0
91	0x40e864bd	7.262297
92	0x4164e585	14.306035
93	0x4165b9d2	14.357866
94	0x3ba26614	0.0049560163
95	0x41338532	11.220018
96	0x2ef5fc61	1.11861416e-10
97	0x3bec53d3	0.007212141
98	0x411bf632	9.747606
99	0x413b16fc	11.693111
100	0x4194d162	18.602238
101	0x369c4143	4.6567598e-06
102	0x00000000	0.0
103	0x413fee8c	11.995739
104	0x4161963b	14.099177
105	0x3b1adc0f	0.00236297
106	0x413bd236	11.738821
107	0x3598bc0d	1.1379612e-06
108	0x00000000	0.0
109	0x3f093e1c	0.53610396
110	0x3a7230d3	0.0009238843
111	0x307ca9ef	9.1918556e-10
112	0x00000000	0.0
113	0x40f3fe91	7.624825
114	0x41339381	11.223512
115	0x415faa2e	13.979048
116	0x40f583c6	7.6723356
117	0x3bcef3ad	0.0063156695
118	0x41019461	8.098725
119	0x00000000	0.0
120	0x2ceae504	6.676106e-12
121	0x4103afb1	8.230393
122	0x410a397d	8.639035
123	0x00000000	0.0
124	0x412b068a	10.689096
125	0x00000000	0.0
126	0x40eef7be	7.467742
127	0x3aa40365	0.0012513219

exp_avg f4 [2]
0	0x3f3cda31	0.73770434
1	0x3f468178	0.77541304

exp_avg_sq f4 [2]
0	0x40e6c3d4	7.211405
1	0x40e234ba	7.0689363
