Cartpole/cartpole_4000.pth (torch, 69807 bytes, 18 tensors)

fc1.weight f4 [32, 4]
-0.15879229 -0.13084601 -0.024483606 -0.12637542 -0.07270913 -0.11104627 -1.3345354 -0.40918213
0.25210345 -0.013789191 0.84813833 -0.19045678 0.16102055 -0.07750058 -0.6767887 0.11947782
0.5805716 0.34760627 0.786035 0.23400712 0.040795162 0.54873914 2.8847988 0.9086152
0.42412603 0.19223253 0.06002427 0.17403305 0.18855035 0.5158947 0.8485772 0.3757636
-0.1585781 -0.09957262 -0.4113808 -0.048783995 -0.05838945 0.27773455 -0.09826719 0.06909262
0.6413278 0.091284744 -2.1793551 -0.42040607 0.07138978 -0.4123619 -0.4720748 -0.16194211
-0.18489838 -0.031216385 -0.7474708 -0.23166443 -0.0717024 -0.20033593 -0.2734912 -0.040989324
0.03516323 -0.032713328 -0.8905297 -0.13998535 0.2747719 0.37097412 0.8460177 0.30422336
-0.07852309 0.62782073 0.18064162 0.41227078 -0.1997258 0.005295368 1.9981134 0.45631614
-0.13892044 0.018954953 2.8093226 0.38073948 -0.34061235 -0.34599963 -0.5171718 -0.3417834
0.27878642 -0.38343832 1.4038451 0.41558877 -0.02807643 -0.1603412 0.33992058 0.07885668
0.29150766 0.4637695 0.77274376 0.27805948 0.024067031 0.03696804 0.10148317 -0.13770257
-0.41619742 -0.28765967 -1.4645644 -0.35254693 -0.0883408 0.1603561 -0.124825224 0.055682253
-0.25358266 -0.26105478 0.34964597 -0.26314974 0.5217648 0.11065407 0.7486881 0.070329584
0.07477557 -0.7478787 -1.7363945 -0.62567407 -0.33838448 -0.43047693 -1.2444022 -0.3675664
-0.12557268 0.23387398 0.15934505 -0.025503041 0.8112845 -0.4316111 0.4170843 -0.3501089
00000000: 729a 22be 7ffc 05be d891 c8bc 8f68 01be
00000010: 86e8 94bd 3a6c e3bd 0ed2 aabf 5280 d1be
00000020: b413 813e 0fec 61bc 981f 593f 1a07 43be
00000030: 92e2 243e a0b8 9ebd 0642 2dbf cab0 f43d
00000040: 57a0 143f 73f9 b13e 9739 493f 909f 6f3e
00000050: d418 273d 2b7a 0c3f 8ba0 3840 019b 683f
00000060: 0c27 d93e 9bd8 443e 02dc 753d b835 323e
00000070: 5813 413e ad11 043f 5b3c 593f 1664 c03e
00000080: 4c62 22be bbec cbbd 81a0 d2be bad1 47bd
00000090: c729 6fbd 3933 8e3e 4f40 c9bd 6e80 8d3d
000000a0: 0f2e 243f 7ff3 ba3d 8e7a 0bc0 773f d7be
000000b0: ce34 923d 1921 d3be cab3 f1be 27d4 25be
000000c0: 0056 3dbe 81b9 ffbc 3f5a 3fbf 7139 6dbe
000000d0: b5d8 92bd dd24 4dbe 0a07 8cbe 6ce4 27bd
000000e0: 5207 103d 69fe 05bd c1f9 63bf 5258 0fbe
000000f0: e7ae 8c3e 52f0 bd3e 9e94 583f 2ac3 9b3e
00000100: b7d0 a0bd dcb8 203f 1efa 383e 2815 d33e
00000110: ec84 4cbe c484 ad3b 2ec2 ff3f 45a2 e93e
00000120: 2941 0ebe 6b47 9b3c f1cb 3340 49f0 c23e
00000130: be64 aebe dd26 b1be 5f65 04bf 3cfe aebe
00000140: 18bd 8e3e 0752 c4be 32b1 b33f 0dc8 d43e
00000150: 8b00 e6bc 7c30 24be 120a ae3e 9c7f a13d
00000160: 7e40 953e 3273 ed3e 89d2 453f d05d 8e3e
00000170: 3928 c53c cd6b 173d 69d6 cf3d e701 0dbe
00000180: d417 d5be 2148 93be d976 bbbf 0881 b4be
00000190: 05ec b4bd 6434 243e 5ea4 ffbd 1313 643d
000001a0: 96d5 81be f9a8 85be cc04 b33e 90bb 86be
000001b0: 6192 053f 9a9e e23d 06aa 3f3f f508 903d
000001c0: ef23 993d fa74 3fbf 2d42 debf 2d2c 20bf
000001d0: bb40 adbe 7967 dcbe 9248 9fbf aa31 bcbe
000001e0: 2096 00be a97c 6f3e 592b 233e c1eb d0bc
000001f0: 57b0 4f3f 21fc dcbe 138c d53e 7941 b3be

fc1.bias f4 [32]
-0.41351 -0.38359028 -0.2814107 -0.53145427 -0.28131443 -0.414866 -0.30615693 0.8897935
-0.3950331 0.4077168 -0.24472755 0.5944804 0.7617958 0.7362459 0.6246566 0.9700975
-0.3853527 -0.3803028 -0.4484427 -0.7240938 -0.7955571 0.64476115 1.0408672 0.549573
-0.7650392 0.6233808 0.7732317 -0.27874207 0.38704365 -0.65825486 0.6123348 -0.4290052
00000000: 95b7 d3be f265 c4be 1015 90be 630d 08bf
00000010: 7208 90be 5169 d4be 9ac0 9cbe 82c9 633f
00000020: c741 cabe 42c0 d03e dc99 7abe de2f 183f
00000030: 0d05 433f 9c7a 3c3f 7fe9 1f3f 4f58 783f
00000040: f34c c5be 0cb7 c2be 489a e5be 365e 39bf
00000050: a1a9 4bbf 110f 253f 233b 853f d1b0 0c3f
00000060: 9cd9 43bf e295 1f3f 83f2 453f 48b7 8ebe
00000070: 962a c63e 6483 28bf f9c1 1c3f 92a6 dbbe

fc2.weight f4 [64, 32]
-0.07600497 0.019827284 -0.010737352 0.11935979 -0.1220972 0.0013766775 -0.0024135439 0.03209042
-0.053394128 -0.05526786 0.10364141 -0.13268448 -0.21509327 -0.16825265 0.11390763 0.089271665
-0.010850208 0.06329916 -0.103628725 -0.126827 -0.12851322 0.09179809 0.007980604 -0.09628222
0.05191655 -0.02073971 -0.11727987 -0.15237391 0.008512209 0.1584736 -0.18710676 -0.17526849
-0.12201336 0.25297967 -0.16300027 -0.0656311 0.23039302 1.9234823 0.34377825 0.14269839
-0.3230032 0.05211217 1.326523 -0.038820628 -0.29635856 -0.03082042 -0.20561409 0.11739176
-0.12811434 0.12116121 1.0499512 0.43360135 0.1502794 -0.21395636 0.17615783 -0.31019294
0.7349219 -0.22609898 -0.03811079 0.119683154 0.15871893 0.50855136 -0.35473055 0.42826566
-0.10594602 0.29831555 -0.16886939 0.020102853 0.08698374 1.7039942 0.12740268 -0.08985608
-0.004704712 -0.07368943 1.7732228 -0.015589654 -0.14807862 -0.10979977 -0.43622643 0.16526051
0.082233086 -0.026445217 0.94234365 0.81707895 0.35997307 -0.27316502 0.024393285 -0.095978834
0.9189751 -0.12414844 -0.09924597 0.010243914 0.15181361 0.47618183 -0.02952529 0.339364
0.11759675 -0.06748742 -0.080270104 -0.07395305 -0.15862723 -0.0812709 -0.1022367 -0.04606032
-0.14254811 -0.07973673 -0.060122963 -0.057172645 0.0033670315 -0.23117214 0.030164413 -0.052788164
-0.13597871 0.134836 -0.083795436 -0.047544703 -0.022879232 -0.0018370802 -0.19796269 0.033238754
-0.09680779 0.052164745 -0.0408592 -0.03743135 0.09127908 -0.07514671 -0.18639779 0.044486843
-0.35805106 0.5042217 -0.5300453 -0.18405189 0.07648887 1.3115407 -0.057995427 -0.09966489
-0.19738735 -0.5064658 1.0571884 -0.020870188 -0.55981314 -0.1926221 -0.49449223 0.117417276
0.074442066 0.011682834 0.6147017 0.4542009 -0.096027546 -0.12506284 0.094764896 -0.3227527
0.60491794 -0.36140183 -0.19657888 -0.16933803 0.11405479 0.16164348 -0.33933908 0.1537175
-0.16343042 -0.049387425 -0.009178003 -0.14727154 -0.07921557 -0.02982389 -0.13645518 0.09078151
-0.02275367 -0.037664972 -0.093366265 -0.03059328 0.04156012 0.006130807 -0.10759275 -0.10536891
0.032474693 -0.16735259 -0.01205246 -0.013165263 0.018261997 -0.029470341 -0.0011441816 -0.15182789
-0.12985568 -0.15710264 -0.1734772 -0.11554885 0.05087483 0.0030783005 0.050035473 -0.11429077
-0.1515331 0.027244993 -0.10272678 -0.09343805 -0.01182475 -0.14696503 -0.017703664 -0.20816174
-0.18799385 -0.031975903 0.48948538 -0.06365644 -0.05596609 -0.009348346 -0.11739253 -0.023350667
0.1518225 -0.29159072 -0.10290904 0.11900728 -0.081307456 -0.18964674 -0.3004448 -0.15912801
0.26032516 -0.32466748 -0.06735822 -0.047898665 0.056654576 0.22412439 -0.07682801 0.17521401
-0.14595667 0.038462784 0.23346347 0.02774656 0.2116283 1.6463172 0.043799028 0.13871811
-0.13505675 -0.5978845 0.86624086 -0.17702083 -0.92494386 0.0026679148 -0.81525505 0.05175263
-0.1317904 0.25018993 0.65082574 0.46425182 0.26813656 -0.16008314 -0.04638222 -0.69564587
0.74771506 -0.27098003 0.010425442 -0.13885717 -0.96191853 0.38652116 -0.6726458 0.23122072
00000000: 7ea8 9bbd d46c a23c b8eb 2fbc e872 f43d
00000010: 190e fabd a271 b43a 8c2c 1ebb 3f71 033d
00000020: cdb3 5abd 8d60 62bd f341 d43d 71de 07be
00000030: 6941 5cbe 6c4a 2cbe 6748 e93d 10d4 b63d
00000040: 12c5 31bc fda2 813d 4c3b d4bd f0de 01be
00000050: f898 03be a300 bc3d 14c1 023c 9d2f c5bd
00000060: 73a6 543d 53e6 a9bc 6e30 f0bd e807 1cbe
00000070: cb76 0b3c e746 223e ea98 3fbe 9579 33be
00000080: 24e2 f9bd 8d86 813e 8be9 26be 9969 86bd
00000090: 26ec 6b3e ab34 f63f b403 b03e 871f 123e
000000a0: ad60 a5be 9273 553d 81cb a93f 6102 1fbd
000000b0: 4fbc 97be 1b7b fcbc 808c 52be 176b f03d
000000c0: 6830 03be 5e23 f83d cd64 863f ff00 de3e
000000d0: d8e2 193e 6017 5bbe b862 343e 9cd1 9ebe
000000e0: d723 3c3f 7e86 67be 0f1a 1cbd 711c f53d
000000f0: 3787 223e 6c30 023f 3e9f b5be a345 db3e
00000100: 3afa d8bd d1bc 983e 19ec 2cbe bdae a43c
00000110: 8824 b23d 7b1c da3f d975 023e 7706 b8bd
00000120: fc29 9abb 7cea 96bd f7f8 e23f c06b 7fbc
00000130: eca1 17be b4de e0bd 1259 dfbe 0d3a 293e
00000140: d269 a83d a4a3 d8bc 6f3d 713f 162c 513f
00000150: 644e b83e 49dc 8bbe 6dd4 c73c 8d90 c4bd
00000160: f441 6b3f 8a41 febd 7941 cbbd 17d6 273c
00000170: 0775 1b3e 1bce f33e 05df f1bc 1ec1 ad3e
00000180: 91d6 f03d d836 8abd a764 a4bd b274 97bd
00000190: 2d6f 22be 5c71 a6bd 7a61 d1bd bfa9 3cbd
000001a0: 22f8 11be 034d a3bd 7f43 76bd dd2d 6abd
000001b0: 6aa9 5c3b 64b8 6cbe 5c1b f73c 6738 58bd
000001c0: 013e 0bbe 7312 0a3e f19c abbd 3cbe 42bd
000001d0: 3a6d bbbc 2fca f0ba bbb6 4abe 5c25 083d
000001e0: 2a43 c6bd b3aa 553d fa5b 27bd 9e51 19bd
000001f0: 87f0 ba3d 85e6 99bd 10df 3ebe d637 363d
00000200: 7852 b7be ac14 013f 0cb1 07bf 1978 3cbe
00000210: 32a6 9c3d 91e0 a73f 9d8c 6dbd 1b1d ccbd
00000220: e91f 4abe bea7 01bf f351 873f f5f7 aabc
00000230: ea4f 0fbf ba3e 45be 162e fdbe 7878 f03d
00000240: 1575 983d 5b69 3f3c 175d 1d3f 058d e83e
00000250: 17aa c4bd 7910 00be 1914 c23d d83f a5be
00000260: e7db 1a3f a909 b9be f94b 49be f366 2dbe
00000270: 8f95 e93d de85 253e dabd adbe 1f68 1d3e
00000280: 4e5a 27be 784a 4abd 565f 16bc 5ace 16be
00000290: c63b a2bd 3b51 f4bc e8ba 0bbe a8eb b93d
000002a0: e865 babc 9646 1abd d036 bfbd c29e fabc
000002b0: f23a 2a3d f0e4 c83b 9659 dcbd a8cb d7bd
000002c0: 2f04 053d 7a5e 2bbe ae77 45bc 1eb3 57bc
000002d0: 2f9a 953c c96b f1bc 5df8 95ba c578 1bbe
000002e0: e3f8 04be 84df 20be 02a4 31be e0a4 ecbd
000002f0: 2062 503d 50bd 493b fff1 4c3d 4711 eabd
00000300: 7e2b 1bbe e430 df3c 6b62 d2bd 735c bfbd
00000310: 99bc 41bc 007e 16be 4607 91bc 5a28 55be
00000320: 7681 40be 2af9 02bd d49d fa3e 4f5e 82bd
00000330: b33c 65bd ce29 19bc 7f6b f0bd e649 bfbc
00000340: 5c77 1b3e 614b 95be fac1 d2bd 17ba f33d
00000350: 8684 a6bd c132 42be e7d3 99be 74f2 22be
00000360: 5749 853e d13a a6be 1bf3 89bd 6431 44bd
00000370: a10e 683d dd80 653e 0158 9dbd 4d6b 333e
00000380: aa75 15be 278b 1d3d 0c11 6f3e c14c e33c
00000390: 17b5 583e 86ba d23f 9c66 333d 1f0c 0e3e
000003a0: 514c 0abe f50e 19bf f6c1 5d3f f344 35be
000003b0: 1fc9 6cbf 2fd8 2e3b 8eb4 50bf 91fa 533d
000003c0: 10f4 06be e518 803e 849c 263f 6ab2 ed3e
000003d0: 3249 893e d6ec 23be 48fb 3dbd d915 32bf
000003e0: 416a 3f3f e5bd 8abe 79cf 2a3c 9330 0ebe
000003f0: 4b40 76bf 1ae6 c53e 8432 2cbf 20c5 6c3e

fc2.bias f4 [64]
-0.010477788 -0.21709919 -0.098478556 -0.037554305 -0.32718915 0.08602591 -0.22236575 -0.22698319
-0.13558386 -0.18035997 -0.1690119 0.6894517 -0.091901526 -0.11770123 -0.21875197 -0.13207501
-0.017778547 -0.1761202 -0.14733258 -0.09258552 -0.28352624 -0.19082126 -0.035710335 -0.14908585
-0.093431234 -0.21987115 -0.17163467 0.08292858 -0.08092218 -0.07816038 -0.22522636 -0.039870206
-0.29763815 -0.1785553 -0.18319423 -0.08072963 -0.005338828 -0.26340982 -0.21453027 -0.14746208
-0.22678295 -0.21916515 -0.21877259 -0.15621078 -0.18358514 -0.28680962 -0.12668239 -0.20505564
-0.2402133 0.88730574 -0.15180042 0.08551108 -0.116648324 -0.11282155 -0.06416181 -0.13444668
-0.5574139 -0.16656218 -0.15846188 -0.20361166 -0.17791371 -0.21548112 -0.20619407 -0.17794988
00000000: 07ab 2bbc 404f 5ebe 20af c9bd 8bd2 19bd
00000010: 5685 a7be 5a2e b03d d9b3 63be 486e 68be
00000020: 7fd6 0abe 49b0 38be 7511 2dbe e87f 303f
00000030: de36 bcbd 580d f1bd 8400 60be ac3e 07be
00000040: 51a4 91bc db58 34be 5ade 16be 7a9d bdbd
00000050: 5a2a 91be a666 43be 0045 12bd f6a9 18be
00000060: e058 bfbd e725 61be 00c1 2fbe 76d6 a93d
00000070: 87ba a5bd 8d12 a0bd bda1 66be f14e 23bd
00000080: 0764 98be 33d7 36be 4597 3bbe 9455 a5bd
00000090: 56f1 aebb a7dd 86be d3ad 5bbe 4d00 17be
000000a0: ca39 68be d46c 60be ec05 60be b8f5 1fbe
000000b0: befd 3bbe b6d8 92be 07b9 01be 1bfa 51be
000000c0: 7afa 75be 7826 633f 9271 1bbe 6f20 af3d
000000d0: 51e5 eebd fc0e e7bd 4467 83bd 64ac 09be
000000e0: adb2 0ebf 478f 2abe d543 22be 937f 50be
000000f0: 032f 36be 15a7 5cbe 8a24 53be 7e38 36be

fc3.weight f4 [2, 64]
-0.050862644 -0.4660947 -0.3199503 0.04622047 -0.0624636 -0.057214245 -0.2351919 -0.2947028
-0.007455677 -0.1701687 -0.5377221 1.0420145 -0.63785654 -0.47113332 -0.28280255 -0.50646085
0.014332819 -0.17116763 -0.045060523 -0.40156913 0.033235017 -0.33540624 0.01919579 0.06597713
-0.36033547 0.094031945 -0.02517629 -1.0724106 0.0031265407 0.05736904 -0.5269249 -0.0066644265
-0.42493302 -0.3264103 0.074680544 -0.12363602 -0.8184483 0.0443018 -0.34734583 -0.015972435
-0.41714403 -0.020936703 -0.05109468 -0.068391874 -0.21543318 -0.29934388 -0.11862154 -0.46129748
-0.23255093 1.0683168 -0.5674949 -0.008455 -0.5857889 0.060658116 -0.17064922 -0.17632854
-0.74270636 0.032464504 0.0024760861 0.000104192164 -0.02128415 -0.115557864 0.0035463285 -0.00058739336
0.0735733 -0.14389114 -0.25984684 -0.080391675 -0.737052 -0.034898147 -0.043143347 -0.9239043
-0.06618648 -0.35259804 -0.5895908 1.1158489 -0.38805214 -0.2697033 0.1431454 -0.556949
0.10570787 -0.4859571 -0.5170098 0.061620444 -0.108593866 -1.7174737 -0.06206503 0.09354544
0.016294587 -0.23386137 0.015302254 0.018666813 0.014349612 0.08783342 -0.24160108 0.051232018
-0.661775 -0.6919547 -0.5516927 -0.1002506 -1.1965644 -0.40289336 -0.85193795 0.028773975
-0.7350151 0.04038152 0.010700252 -0.015051764 -0.04901186 -0.114075184 -0.0115493685 -0.62684125
-0.9141296 0.98723567 0.049076505 0.015839133 -0.3398845 0.067525186 -0.165692 -0.19292423
-1.1176493 -0.0518638 -0.025153833 0.0023806484 -0.042876925 -0.24857812 -0.028088043 -0.012509784
00000000: 5955 50bd f7a3 eebe 87d0 a3be ad51 3d3d
00000010: d5d9 7fbd 7c59 6abd 25d6 70be 49e3 96be
00000020: c04e f4bb b440 2ebe 28a8 09bf bb60 853f
00000030: 914a 23bf 6338 f1be 7fcb 90be 6ba7 01bf
00000040: 33d4 6a3c 9146 2fbe 6291 38bd 789a cdbe
00000050: 7121 083d 5eba abbe 7d40 9d3c 041f 873d
00000060: e47d b8be d293 c03d 823e cebc c044 89bf
00000070: a6e6 4c3b ccfb 6a3d 8de4 06bf 4361 dabb
00000080: d290 d9be 401f a7be 1df2 983d e234 fdbd
00000090: d485 51bf ce75 353d 50d7 b1be a0d8 82bc
000000a0: e793 d5be 7383 abbc a848 51bd 0a11 8cbd
000000b0: 849a 5cbe 9a43 99be daef f2bd 2f2f ecbe
000000c0: d521 6ebe 9bbe 883f 5947 11bf d786 0abc
000000d0: 43f6 15bf a574 783d abbe 2ebe 788f 34be
000000e0: 0122 3ebf 80f9 043d d545 223b be81 da38
000000f0: 195c aebc 9aa9 ecbd 8569 683b 4dfb 19ba
00000100: 99ad 963d 3358 13be a50a 85be 64a4 a4bd
00000110: 71af 3cbf 5cf1 0ebd 14b7 30bd fe84 6cbf
00000120: c78c 87bd bb87 b4be 6cef 16bf 23d4 8e3f
00000130: c5ae c6be 8d16 8abe b594 123e 3694 0ebf
00000140: 5e7d d83d 5ecf f8be c15a 04bf b865 7c3d
00000150: 7666 debd 2ed6 dbbf e737 7ebd c094 bf3d
00000160: 3a7c 853c 5b79 6fbe 4eb6 7a3c 25eb 983c
00000170: a31a 6b3c 02e2 b33d 4666 77be aad8 513d
00000180: 166a 29bf f123 31bf bc3b 0dbf 3050 cdbd
00000190: 0629 99bf 0a48 cebe 9b18 5abf 66b7 eb3c
000001a0: f329 3cbf 1867 253d 1c50 2f3c ad9b 76bc
000001b0: a9c0 48bd 40a0 e9bd 9039 3dbc ab78 20bf
000001c0: 6604 6abf 7abb 7c3f 7204 493d 12c1 813c
000001d0: 5705 aebe a54a 8a3d 2aab 29be ee8d 45be
000001e0: 220f 8fbf 236f 54bd 690f cebc a704 1c3b
000001f0: b79f 2fbd 438b 7ebe e518 e6bc d6f5 4cbc

fc3.bias f4 [2]
0.28320813 0.3840552
00000000: a800 913e e2a2 c43e

exp_avg f4 [32, 4]
-0.16186847 -0.07809528 0.004023327 -0.006891673 -0.02190385 -0.01722748 -0.00071297114 -0.0036035795
6e-45 6e-45 -6e-45 -6e-45 -6e-45 -6e-45 6e-45 6e-45
6e-45 -6e-45 6e-45 6e-45 -2.8162683e-09 -3.6151933e-09 1.123994e-09 6.7398607e-09
-6e-45 -6e-45 -6e-45 6e-45 1.7429855 0.6547198 0.03087077 0.031273544
-0.115410164 -0.046438605 0.0017042282 -0.0006879483 0.72512233 0.32900897 0.008647064 0.013439287
0.0034779317 -0.0030816314 -0.009339869 -0.030685509 3.4493372 1.8657293 0.044742633 -0.046577092
0.8905317 0.48190737 0.011615125 -0.008278294 1.6797115 0.9181959 0.020564705 -0.02120722
2.3774507 1.2977989 0.02969155 -0.026962139 1.8124563 0.9483681 0.025860393 -0.03607205
-6e-45 -6e-45 -6e-45 -6e-45 -0.24578771 -0.0858991 0.0043634977 0.0065369443
-0.13067983 -0.06873592 0.004367918 0.012173813 -2.0166032 -0.85524493 0.028082665 0.008214776
-0.0026618647 -0.0059168558 -1.9454119e-05 0.0021147674 1.5663948 0.8621172 0.018886015 -0.01963744
1.8655066 0.8904742 0.03256526 -0.015354531 1.7799215 0.974574 0.021927249 -0.02245701
-1.297121 -0.5739785 0.015941435 -0.0021868213 1.2918354 0.7015418 0.016700191 -0.015460775
0.92108625 0.5031833 0.01198507 -0.0133316815 6e-45 6e-45 6e-45 -6e-45
1.2255402 0.64499956 0.017962849 -0.015642261 -2.8424895 -1.449228 0.013303077 0.09025176
0.9154687 0.50132763 0.011434557 -0.009765607 6e-45 -6e-45 -6e-45 6e-45
00000000: d9c0 25be 6bf0 9fbd 1dd6 833b 8bd3 e1bb
00000010: b46f b3bc a520 8dbc afe6 3aba 082a 6cbb
00000020: 0400 0000 0400 0000 0400 0080 0400 0080
00000030: 0400 0080 0400 0080 0400 0000 0400 0000
00000040: 0400 0000 0400 0080 0400 0000 0400 0000
00000050: 5188 41b1 276f 78b1 067b 9a30 7194 e731
00000060: 0400 0080 0400 0080 0400 0080 0400 0000
00000070: 261a df3f b89b 273f b2e4 fc3c b018 003d
00000080: 2a5c ecbd 6836 3ebd 6960 df3a 6e57 34ba
00000090: 9ea1 393f dd73 a83e 6aac 0d3c 7530 5c3c
000000a0: 03ee 633b 32f5 49bb 4006 19bc 2d60 fbbc
000000b0: f1c1 5c40 38d0 ee3f 0d44 373d 9fc7 3ebd
000000c0: e3f9 633f 90bc f63e 5e4d 3e3c aea1 07bc
000000d0: c900 d73f e30e 6b3f 5077 a83c c4ba adbc
000000e0: 2728 1840 461e a63f b23b f33c b4df dcbc
000000f0: 91fe e73f 40c8 723f 2dd9 d33c 49c0 13bd
00000100: 0400 0080 0400 0080 0400 0080 0400 0080
00000110: c6af 7bbe deeb afbd acfb 8e3b dd33 d63b
00000120: efd0 05be 6bc5 8cbd c020 8f3b ac74 473c
00000130: 0710 01c0 55f1 5abf 9e0d e63c 4597 063c
00000140: ae72 2ebb 2fe2 c1bb 6731 a3b7 e997 0a3b
00000150: a07f c83f b6b3 5c3f d8b6 9a3c b2de a0bc
00000160: ecc8 ee3f 1ef6 633f 2663 053d 9291 7bbc
00000170: 78d4 e33f af7d 793f c6a0 b33c c3f7 b7bc
00000180: 1008 a6bf 41f0 12bf 9d97 823c c650 0fbb
00000190: dd5a a53f 3e98 333f d7ce 883c 314f 7dbc
000001a0: 4fcc 6b3f 9fd0 003f 075d 443c 206d 5abc
000001b0: 0400 0000 0400 0000 0400 0000 0400 0080
000001c0: 80de 9c3f b11e 253f d326 933c 3324 80bc
000001d0: 59eb 35c0 4e80 b9bf 26f5 593c ead5 b83d
000001e0: 285c 6a3f 0257 003f 0258 3b3c edff 1fbc
000001f0: 0400 0000 0400 0080 0400 0080 0400 0000

exp_avg_sq f4 [32, 4]
0.19293195 0.03973534 0.000115836636 0.00021057049 0.0009222337 0.0005328158 2.098739e-06 3.0362777e-05
2.955662e-09 2.9650525e-07 2.1153757e-09 6.7727103e-07 5.1279083e-21 2.1440794e-19 6.6498576e-22 1.6061444e-19
6.079436e-16 6.7076566e-16 1.4721676e-17 9.353953e-16 0.0022081407 0.16441073 0.00042531875 0.20689933
3.7904006e-17 4.6284556e-18 3.1005805e-21 1.4844871e-19 13.28289 2.314238 0.00767596 0.017315025
0.034191296 0.0059378333 9.826744e-06 3.3955064e-05 2.2086535 0.52371305 0.00077028485 0.0042257053
9.164717e-05 0.0030590065 0.0013807965 0.009190477 46.68926 13.03089 0.015605593 0.04746377
3.0636408 0.8757327 0.0010492577 0.014256651 10.9987 3.104895 0.0033037383 0.015271773
21.850353 6.1676607 0.0067973156 0.0381748 13.241116 3.6003056 0.005346079 0.013489708
8.009086e-21 1.5835073e-21 1.888927e-24 5.64142e-23 0.30034307 0.042530738 9.764511e-05 0.0057994123
0.1567794 0.12607493 0.00033977945 0.08983062 15.133484 2.4924502 0.0035200026 0.00748843
0.0002141004 0.0057505905 8.572672e-06 0.0056427303 9.449893 2.6733842 0.00279331 0.011228876
13.936269 3.3661587 0.007992412 0.014420912 12.353119 3.4851234 0.0037079803 0.016195266
6.1202893 1.0042161 0.0012945033 0.0026041097 6.453754 1.809291 0.0021639613 0.008313952
3.2798958 0.92768306 0.0010921552 0.0052469275 1.7339042e-17 8.684621e-18 1.5591667e-19 1.11903e-17
6.0028 1.6503593 0.0024836864 0.008524063 30.772736 7.3848033 0.001660969 0.04879194
3.2422688 0.92034036 0.0010089094 0.006478819 9.099984e-18 2.1132918e-18 1.9745717e-20 1.578799e-18
00000000: f48f 453e 86c1 223d 52ed f238 96cc 5c39
00000010: 0ec2 713a aaac 0b3a 10d8 0c36 91b3 fe37
00000020: 8e1c 4b31 5f2f 9f34 155e 1131 b6cd 3535
00000030: 16ba c11d d320 7d20 c8fa 481c bc9e 3d20
00000040: 523a 2f26 c555 4126 93c8 8723 ffcd 8626
00000050: 74b6 103b 495b 283e 51fd de39 6bdd 533e
00000060: 27cd 2e24 87c2 aa22 f345 6a1d df41 2f20
00000070: b886 5441 7a1c 1440 9f86 fb3b 3dd8 8d3c
00000080: 2c0c 0c3d 2892 c23b 8bdd 2437 f96a 0e38
00000090: 945a 0d40 0f12 063f f1ec 493a c977 8a3b
000000a0: b332 c038 9d79 483b d8fb b43a a893 163c
000000b0: cdc1 3a42 877e 5041 9aae 7f3c 5f69 423d
000000c0: b112 4440 0530 603f 3f87 893a ba94 693c
000000d0: adfa 2f41 9ab6 4640 8883 583b 7536 7a3c
000000e0: 86cd ae41 7a5d c540 04bc de3b 2e5d 1c3d
000000f0: 9cdb 5341 686b 6640 292e af3b f003 5d3c
00000100: 9049 171e f94a ef1c 0e26 1218 b366 881a
00000110: 91c6 993e b634 2e3d d2c6 cc38 ff08 be3b
00000120: c78a 203e c919 013e 6d24 b239 1ef9 b73d
00000130: c022 7241 4e84 1f40 d8af 663b 8161 f53b
00000140: 2380 6039 736f bc3b 59d3 0f37 a7e6 b83b
00000150: c332 1741 ba18 2b40 f70f 373b 52f9 373c
00000160: f5fa 5e41 256f 5740 9bf2 023c b045 6c3c
00000170: 60a6 4541 430c 5f40 9601 733b efab 843c
00000180: 69d9 c340 278a 803f 53ac a93a b6a9 2a3b
00000190: 2785 ce40 d996 e73f 3fd1 0d3b 3e37 083c
000001a0: d0e9 5140 a37c 6d3f a626 8f3a 6bee ab3b
000001b0: a8ec 9f23 f733 2023 ec12 3820 b36c 4e23
000001c0: f016 c040 f93e d33f 58c5 223b 83a8 0b3c
000001d0: 902e f641 4f50 ec40 dfb4 d93a 0fda 473d
000001e0: 5581 4f40 6d9b 6b3f 623d 843a 464c d43b
000001f0: 76dd 2723 f4ee 1b22 377e ba1e 57fd e821

exp_avg f4 [32]
0.08188056 0.012879017 6e-45 6e-45 6e-45 1.5023181e-08 -6e-45 -1.3937653
0.05421116 -0.5601498 0.09029381 -2.6916037 -0.69976705 -1.2977988 -1.8371322 -1.4575129
-6e-45 0.12489634 0.06844127 1.0597981 0.0028677175 -1.2011588 -1.5227389 -1.3736962
0.66818744 -1.0025451 -0.71596515 6e-45 -0.9853775 1.6689548 -0.7134594 6e-45
00000000: ffb0 a73d 8302 533c 0400 0000 0400 0000
00000010: 0400 0000 530c 8132 0400 0080 e766 b2bf
00000020: 850c 5e3d fa65 0fbf f6eb b83d 3c43 2cc0
00000030: ef23 33bf 451e a6bf 2627 ebbf c88f babf
00000040: 0400 0080 a7c9 ff3d f02a 8c3d 77a7 873f
00000050: 51f0 3b3b 92bf 99bf 1ce9 c2bf 47d5 afbf
00000060: 550e 2b3f 6653 80bf 7e49 37bf 0400 0000
00000070: b341 7cbf 50a0 d53f 46a5 36bf 0400 0000

exp_avg_sq f4 [32]
0.04884457 0.00028692262 5.526164e-07 6.2410726e-20 3.9452906e-15 0.033567533 1.365769e-17 8.726126
0.0072787576 1.3702875 0.09484769 28.947876 1.9235555 6.68588 13.3456335 8.676906
1.9193959e-21 0.07887233 0.06365832 4.1305914 0.0012579452 5.695432 9.579816 7.4955473
1.5922568 3.9896388 2.0292187 4.4194232e-17 3.914618 10.515032 1.988517 7.15919e-18
00000000: 3e11 483d 1a6e 9639 8357 1435 f85c 931f
00000010: e224 8e27 1c7e 093d 9ef0 7b23 369e 0b41
00000020: a582 ee3b 9565 af3f 813f c23d 4095 e741
00000030: 1137 f63f bbf2 d540 b787 5541 9bd4 0a41
00000040: 8406 111d d187 a13d 4b5f 823d ce2d 8440
00000050: a3e1 a43a fb40 b640 ed46 1941 86db ef40
00000060: 12cf cb3f 3e56 7f40 b8de 0140 57cf 4b24
00000070: 1a89 7a40 923d 2841 ba87 fe3f 5210 0423

exp_avg f4 [64, 32]
0.0 -6e-45 0.0 0.0 6e-45 6e-45 6e-45 6e-45
6e-45 6e-45 6e-45 6e-45 6e-45 6e-45 6e-45 6e-45
6e-45 6e-45 6e-45 0.0 0.0 6e-45 6e-45 6e-45
0.0 6e-45 -6e-45 6e-45 6e-45 0.0 6e-45 6e-45
0.00026982828 0.00025125526 -6e-45 6e-45 6e-45 6e-45 -6e-45 1.0922698e-21
0.00024293919 3.38133e-05 1.1560732e-21 0.0018761209 0.001863864 0.0018587227 0.0010186106 1.2122164e-21
-6e-45 -2.9683951e-08 -4.201e-42 0.0010516483 6e-45 0.0013877742 1.4924432e-21 0.00064206164
0.0011560675 0.0007049423 0.0026036801 6e-45 0.0027538128 0.0014581569 0.0005868269 6e-45
0.001785292 0.00061526935 -6e-45 6e-45 6e-45 6e-45 -6e-45 0.00049463706
0.0014138616 0.0018861224 0.0003245634 0.016337452 0.018442493 0.017967483 0.009562256 0.00054505194
-6e-45 0.0007938932 3.673583e-05 0.007677924 -6e-45 0.014088048 0.0006572099 0.00713639
0.008058431 0.0086068455 0.025714468 6e-45 0.021268485 0.010518808 0.008076901 -6e-45
6e-45 6e-45 0.0 6e-45 0.0 0.0 6e-45 6e-45
6e-45 6e-45 0.0 6e-45 6e-45 6e-45 6e-45 6e-45
0.0 6e-45 0.0 6e-45 6e-45 6e-45 6e-45 6e-45
0.0 6e-45 6e-45 0.0 6e-45 6e-45 6e-45 6e-45
-6e-45 6e-45 6e-45 6e-45 -6e-45 6e-45 6e-45 6e-45
-6e-45 6e-45 6e-45 6e-45 6e-45 6e-45 6e-45 6e-45
-6e-45 6e-45 6e-45 -6e-45 6e-45 6e-45 6e-45 6e-45
6e-45 6e-45 6e-45 6e-45 6e-45 6e-45 6e-45 -6e-45
0.0 0.0 0.0 0.0 0.0 0.0 0.0 0.0
0.0 0.0 0.0 0.0 0.0 0.0 0.0 0.0
0.0 0.0 0.0 0.0 0.0 0.0 0.0 0.0
0.0 0.0 0.0 0.0 0.0 0.0 0.0 0.0
6e-45 6e-45 6e-45 -6e-45 6e-45 0.0 -6e-45 6e-45
6e-45 6e-45 6e-45 6e-45 6e-45 6e-45 6e-45 6e-45
-6e-45 6e-45 6e-45 6e-45 -6e-45 6e-45 6e-45 6e-45
6e-45 6e-45 6e-45 6e-45 6e-45 6e-45 6e-45 6e-45
6e-45 -6e-45 6e-45 6e-45 6e-45 6e-45 -6e-45 6e-45
-6e-45 6e-45 6e-45 6e-45 6e-45 6e-45 6e-45 6e-45
-6e-45 6e-45 6e-45 6e-45 6e-45 6e-45 6e-45 6e-45
6e-45 6e-45 6e-45 6e-45 6e-45 6e-45 6e-45 6e-45
00000000: 0000 0000 0400 0080 0000 0000 0000 0000
00000010: 0400 0000 0400 0000 0400 0000 0400 0000
00000020: 0400 0000 0400 0000 0400 0000 0400 0000
00000030: 0400 0000 0400 0000 0400 0000 0400 0000
00000040: 0400 0000 0400 0000 0400 0000 0000 0000
00000050: 0000 0000 0400 0000 0400 0000 0400 0000
00000060: 0000 0000 0400 0000 0400 0080 0400 0000
00000070: 0400 0000 0000 0000 0400 0000 0400 0000
00000080: bd77 8d39 e9ba 8339 0400 0080 0400 0000
00000090: 0400 0000 0400 0000 0400 0080 240f a51c
000000a0: 7ebd 7e39 c1d2 0d38 6ab3 ae1c 2ce8 f53a
000000b0: e64c f43a 62a0 f33a e682 853a 5a2f b71c
000000c0: 0400 0080 b3fb feb2 b60b 0080 76d7 893a
000000d0: 0400 0000 fae5 b53a 1a88 e11c 0750 283a
000000e0: 3087 973a e0cb 383a 81a2 2a3b 0400 0000
000000f0: 5079 343b a01f bf3a 49d5 193a 0400 0000
00000100: 7600 ea3a 074a 213a 0400 0080 0400 0000
00000110: 0400 0000 0400 0000 0400 0080 88aa 013a
00000120: 5351 b93a c437 f73a 2a2a aa39 1fd6 853c
00000130: b614 973c 8b30 933c 02ab 1c3c d1e1 0e3a
00000140: 0400 0080 451d 503a cc14 1a38 1897 fb3b
00000150: 0400 0080 8ed1 663c 9c48 2c3a 61d8 e93b
00000160: 8207 043c ba03 0d3c 26a7 d23c 0400 0000
00000170: 3f3b ae3c 1457 2c3c fa54 043c 0400 0080
00000180: 0400 0000 0400 0000 0000 0000 0400 0000
00000190: 0000 0000 0000 0000 0400 0000 0400 0000
000001a0: 0400 0000 0400 0000 0000 0000 0400 0000
000001b0: 0400 0000 0400 0000 0400 0000 0400 0000
000001c0: 0000 0000 0400 0000 0000 0000 0400 0000
000001d0: 0400 0000 0400 0000 0400 0000 0400 0000
000001e0: 0000 0000 0400 0000 0400 0000 0000 0000
000001f0: 0400 0000 0400 0000 0400 0000 0400 0000
00000200: 0400 0080 0400 0000 0400 0000 0400 0000
00000210: 0400 0080 0400 0000 0400 0000 0400 0000
00000220: 0400 0080 0400 0000 0400 0000 0400 0000
00000230: 0400 0000 0400 0000 0400 0000 0400 0000
00000240: 0400 0080 0400 0000 0400 0000 0400 0080
00000250: 0400 0000 0400 0000 0400 0000 0400 0000
00000260: 0400 0000 0400 0000 0400 0000 0400 0000
00000270: 0400 0000 0400 0000 0400 0000 0400 0080
00000280: 0000 0000 0000 0000 0000 0000 0000 0000
00000290: 0000 0000 0000 0000 0000 0000 0000 0000
000002a0: 0000 0000 0000 0000 0000 0000 0000 0000
000002b0: 0000 0000 0000 0000 0000 0000 0000 0000
000002c0: 0000 0000 0000 0000 0000 0000 0000 0000
000002d0: 0000 0000 0000 0000 0000 0000 0000 0000
000002e0: 0000 0000 0000 0000 0000 0000 0000 0000
000002f0: 0000 0000 0000 0000 0000 0000 0000 0000
00000300: 0400 0000 0400 0000 0400 0000 0400 0080
00000310: 0400 0000 0000 0000 0400 0080 0400 0000
00000320: 0400 0000 0400 0000 0400 0000 0400 0000
00000330: 0400 0000 0400 0000 0400 0000 0400 0000
00000340: 0400 0080 0400 0000 0400 0000 0400 0000
00000350: 0400 0080 0400 0000 0400 0000 0400 0000
00000360: 0400 0000 0400 0000 0400 0000 0400 0000
00000370: 0400 0000 0400 0000 0400 0000 0400 0000
00000380: 0400 0000 0400 0080 0400 0000 0400 0000
00000390: 0400 0000 0400 0000 0400 0080 0400 0000
000003a0: 0400 0080 0400 0000 0400 0000 0400 0000
000003b0: 0400 0000 0400 0000 0400 0000 0400 0000
000003c0: 0400 0080 0400 0000 0400 0000 0400 0000
000003d0: 0400 0000 0400 0000 0400 0000 0400 0000
000003e0: 0400 0000 0400 0000 0400 0000 0400 0000
000003f0: 0400 0000 0400 0000 0400 0000 0400 0000

exp_avg_sq f4 [64, 32]
0.0 7e-43 0.0 0.0 7e-43 7e-43 7e-43 7e-43
7e-43 7e-43 7e-43 7e-43 7e-43 7e-43 7e-43 7e-43
7e-43 7e-43 7e-43 0.0 0.0 7e-43 7e-43 7e-43
0.0 7e-43 7e-43 7e-43 7e-43 0.0 7e-43 7e-43
1.0431041e-06 1.7138393e-06 6.9583665e-11 9.0432824e-23 8.874659e-20 1.0156292e-05 1.5994492e-20 8.106028e-06
6.121389e-07 6.1064105e-07 6.879318e-07 4.967692e-05 4.2576554e-05 5.292608e-05 1.3648289e-05 1.0709166e-05
4.9346676e-25 1.3073578e-05 8.190734e-06 1.2673075e-05 2.0877043e-05 4.044272e-05 7.946791e-06 5.7286393e-06
1.640351e-05 9.714356e-06 8.36757e-05 4.642566e-20 7.634382e-05 2.2617454e-05 6.227996e-06 4.0525598e-20
4.7895614e-06 1.7914057e-06 2.3645075e-11 7.2100505e-23 4.4459762e-20 6.460891e-06 9.386886e-21 5.3763965e-06
2.229491e-06 7.4108507e-06 7.4445416e-07 0.00023987875 0.00034931858 0.000317841 8.5439795e-05 7.01399e-06
3.568164e-25 1.0190664e-05 5.3806352e-06 6.648288e-05 1.1735501e-05 0.00020019677 5.7239345e-06 4.9257265e-05
7.980068e-05 8.3232466e-05 0.00066770724 2.4678134e-20 0.00038832295 0.00011446989 7.786917e-05 2.3776404e-20
7e-43 7e-43 0.0 7e-43 0.0 0.0 7e-43 7e-43
7e-43 7e-43 0.0 7e-43 7e-43 7e-43 7e-43 7e-43
0.0 7e-43 0.0 7e-43 7e-43 7e-43 7e-43 7e-43
0.0 7e-43 7e-43 0.0 7e-43 7e-43 7e-43 7e-43
6.1728517e-12 4.4788433e-11 8.4840126e-13 1.5120237e-23 2.9652754e-20 1.026041e-05 5.371956e-23 5.1987695e-06
3.2575789e-12 3.3775944e-08 3.7181325e-10 8.030141e-06 3.4719326e-07 8.914666e-06 3.2634628e-07 6.713394e-06
3.462663e-26 1.0992917e-05 8.171485e-06 9.711801e-12 1.4649923e-05 1.2486469e-05 4.602396e-06 1.1829009e-07
9.8354085e-12 1.3886926e-06 5.4847164e-06 1.5016142e-22 4.568817e-07 1.3526172e-11 8.767763e-08 1.5375429e-22
0.0 0.0 0.0 0.0 0.0 0.0 0.0 0.0
0.0 0.0 0.0 0.0 0.0 0.0 0.0 0.0
0.0 0.0 0.0 0.0 0.0 0.0 0.0 0.0
0.0 0.0 0.0 0.0 0.0 0.0 0.0 0.0
1.2086026e-12 1.0385572e-12 3.5235797e-29 7e-43 7e-43 0.0 7e-43 2.8017046e-18
7.8431554e-13 1.5213284e-13 7.914482e-25 1.2828097e-11 1.882705e-11 1.4932848e-11 4.7834267e-12 1.7694522e-18
3.8301052e-34 2.413407e-17 4.057076e-18 7.6347375e-12 1.3319814e-31 7.344774e-12 1.8882947e-20 1.7850086e-12
1.0499785e-11 2.9286263e-12 3.2424514e-11 7e-43 3.1326344e-11 1.2108981e-11 2.481882e-12 3.320517e-33
1.6066915e-11 3.9018483e-17 4.0757903e-19 1.2205963e-26 1.4636084e-20 2.3438895e-05 2.5238234e-21 1.3065486e-05
5.8719995e-12 1.0233959e-07 1.6694653e-19 2.078379e-05 1.0681993e-06 2.3050552e-05 1.030848e-06 1.6826196e-05
1.3056681e-25 2.5864581e-05 1.8789498e-05 1.1704199e-12 3.5086356e-05 3.1573425e-05 1.1631757e-05 3.6080095e-07
1.8073105e-13 3.7015839e-06 1.4281564e-05 7.510656e-21 1.3977432e-06 2.5090184e-12 2.6623425e-07 6.2958142e-21
00000000: 0000 0000 f401 0000 0000 0000 0000 0000
00000010: f401 0000 f401 0000 f401 0000 f401 0000
00000020: f401 0000 f401 0000 f401 0000 f401 0000
00000030: f401 0000 f401 0000 f401 0000 f401 0000
00000040: f401 0000 f401 0000 f401 0000 0000 0000
00000050: 0000 0000 f401 0000 f401 0000 f401 0000
00000060: 0000 0000 f401 0000 f401 0000 f401 0000
00000070: f401 0000 0000 0000 f401 0000 f401 0000
00000080: c900 8c35 1207 e635 1f04 992e 35a7 da1a
00000090: 068c d11f f164 2a37 4f10 971e 20ff 0737
000000a0: dd51 2435 efea 2335 50aa 3835 305c 5038
000000b0: 3a94 3238 f2fc 5d38 f4fa 6437 85ab 3337
000000c0: 77b8 1817 9756 5b37 ef6a 0937 719e 5437
000000d0: 1c21 af37 0aa1 2938 3553 0537 a338 c036
000000e0: 459a 8937 d7fa 2237 0d7b af38 2e3d 5b1f
000000f0: c71a a038 9dba bd37 14fa d036 7160 3f1f
00000100: 05b6 a036 3b70 f035 fafb cf2d 0d54 ae1a
00000110: 8ef4 511f a2ca d836 3250 311e e566 b436
00000120: 5d9e 1536 b9aa f836 80d6 4735 f687 7b39
00000130: bf24 b739 e6a3 a639 242e b338 b759 eb36
00000140: d1db dc16 92f8 2a37 4e8b b436 b96c 8b38
00000150: 98e3 4437 e9eb 5139 3910 c036 9699 4e38
00000160: aa5a a738 178d ae38 1309 2f3a 1114 e91e
00000170: d397 cb39 8e0f f038 b14d a338 d18f e01e
00000180: f401 0000 f401 0000 0000 0000 f401 0000
00000190: 0000 0000 0000 0000 f401 0000 f401 0000
000001a0: f401 0000 f401 0000 0000 0000 f401 0000
000001b0: f401 0000 f401 0000 f401 0000 f401 0000
000001c0: 0000 0000 f401 0000 0000 0000 f401 0000
000001d0: f401 0000 f401 0000 f401 0000 f401 0000
000001e0: 0000 0000 f401 0000 f401 0000 0000 0000
000001f0: f401 0000 f401 0000 f401 0000 f401 0000
00000200: 1b30 d92c 4bfb 442e c1cd 6e2b e53b 9219
00000210: fb07 0c1f 2024 2c37 cce2 811a 1771 ae36
00000220: 533b 652c 0b11 1133 1068 cc2f 31b9 0637
00000230: e165 ba34 3390 1537 b134 af34 9e43 e136
00000240: 7876 2b15 386e 3837 4318 0937 10da 2a2d
00000250: f1c8 7537 fa7c 5137 486e 9a36 aa06 fe33
00000260: be06 2d2d 1d63 ba35 5b09 b836 b588 351b
00000270: 5849 f534 77f4 6d2d 4949 bc33 a6e0 391b
00000280: 0000 0000 0000 0000 0000 0000 0000 0000
00000290: 0000 0000 0000 0000 0000 0000 0000 0000
000002a0: 0000 0000 0000 0000 0000 0000 0000 0000
000002b0: 0000 0000 0000 0000 0000 0000 0000 0000
000002c0: 0000 0000 0000 0000 0000 0000 0000 0000
000002d0: 0000 0000 0000 0000 0000 0000 0000 0000
000002e0: 0000 0000 0000 0000 0000 0000 0000 0000
000002f0: 0000 0000 0000 0000 0000 0000 0000 0000
00000300: 7f18 aa2b f729 922b aeaa 3210 f401 0000
00000310: f401 0000 0000 0000 f401 0000 b4ba 4e22
00000320: e4c3 5c2b 4e49 2b2a fdf0 7417 9dac 612d
00000330: bf9a a52d c959 832d 474d a82c 0290 0222
00000340: dd8d fe07 f698 de23 00ae 9522 cd4f 062d
00000350: ade6 2c0c ec35 012d 2a58 b21e b637 fb2b
00000360: d4b6 382d 7115 4e2c c29a 0e2e f401 0000
00000370: 54c6 092e 0106 552d 9da5 2e2c cbed 8909
00000380: 7a53 8d2d e5f0 3324 9a97 f020 96c3 7114
00000390: e13b 8a1e a59e c437 d8b1 3e1d d633 5b37
000003a0: 459a ce2c c9c5 db33 7e18 4520 d958 ae37
000003b0: 0c5f 8f35 af5c c137 ab5b 8a35 fb25 8d37
000003c0: 46a2 2116 c4f7 d837 249e 9d37 d2b8 a42b
000003d0: b029 1338 b56d 0438 0426 4337 1bb4 c134
000003e0: 2e7c 4b2a ba68 7836 da9a 6f37 4edf 0d1e
000003f0: 179a bb35 758e 302c f5ee 8e34 61d9 ed1d

exp_avg f4 [64]
6e-45 0.0014692356 0.015713966 6e-45 6e-45 0.0 6e-45 6e-45
6e-45 0.015962921 6e-45 -1.077201 6e-45 6e-45 -0.0008237263 6e-45
6e-45 0.020697867 6e-45 0.0004271486 -6.3893334e-05 -0.0006272975 6e-45 0.0
0.0037037001 0.008442711 6e-45 0.007178882 6e-45 0.0 6e-45 6e-45
6e-45 6e-45 6e-45 0.0 6e-45 0.005326683 6e-45 6e-45
6e-45 6e-45 6e-45 3.724661e-33 0.02044312 0.00829862 0.0 6e-45
6e-45 -1.0241717 5.8479436e-18 6e-45 2.3170325e-05 6e-45 0.0010743769 0.037463922
6e-45 6e-45 6e-45 6e-45 6e-45 0.01625376 6e-45 6e-45
00000000: 0400 0000 5e93 c03a 93ba 803c 0400 0000
00000010: 0400 0000 0000 0000 0400 0000 0400 0000
00000020: 0400 0000 acc4 823c 0400 0000 b9e1 89bf
00000030: 0400 0000 0400 0000 56ef 57ba 0400 0000
00000040: 0400 0000 938e a93c 0400 0000 eaf2 df39
00000050: 79fe 85b8 3971 24ba 0400 0000 0000 0000
00000060: c7b9 723b 4c53 0a3c 0400 0000 d43c eb3b
00000070: 0400 0000 0000 0000 0400 0000 0400 0000
00000080: 0400 0000 0400 0000 0400 0000 0000 0000
00000090: 0400 0000 758b ae3b 0400 0000 0400 0000
000000a0: 0400 0000 0400 0000 0400 0000 64b7 9a09
000000b0: 5478 a73c eff6 073c 0000 0000 0400 0000
000000c0: 0400 0000 0f18 83bf 44c0 d722 0400 0000
000000d0: e55d c237 0400 0000 1bd2 8c3a c573 193d
000000e0: 0400 0000 0400 0000 0400 0000 0400 0000
000000f0: 0400 0000 9b26 853c 0400 0000 0400 0000

exp_avg_sq f4 [64]
7e-43 3.9493716e-05 0.00024374717 7e-43 8.279364e-06 0.0 9.977484e-12 2.1392858e-05
7e-43 0.0004083658 2.7914344e-05 4.6209126 3.1534484e-05 1.6533399e-05 0.0005720275 2.534278e-05
7e-43 0.0002457685 3.7739615e-06 3.262886e-05 6.666447e-07 3.6639514e-05 7e-43 0.0
7.688695e-05 0.0016114562 1.4973602e-11 0.00031917606 1.8836872e-30 0.0 2.041784e-05 7e-43
2.055902e-05 1.6164073e-05 3.0755705e-06 0.0 6.462164e-05 5.769776e-05 2.2903921e-05 7e-43
2.3180473e-05 7e-43 1.4041185e-23 2.0527052e-08 0.0023421473 0.00021904081 0.0 2.4263414e-05
1.5886824e-05 4.206096 2.5691023e-05 7.817764e-30 4.597114e-05 5.7502535e-38 5.2901332e-06 0.006884132
3.686181e-08 7e-43 7.44882e-29 7e-43 5.648548e-11 0.0011104313 5.544936e-13 7e-43
00000000: f401 0000 0ea6 2538 6296 7f39 f401 0000
00000010: 99e7 0a37 0000 0000 9886 2f2d d074 b337
00000020: f401 0000 ee19 d639 9929 ea37 84de 9340
00000030: e543 0438 34b1 8a37 1ef4 153a 3597 d437
00000040: f401 0000 7dda 8039 2a44 7d36 f9da 0838
00000050: 7af3 3235 61ad 1938 f401 0000 0000 0000
00000060: 5e3e a138 7f37 d33a 8eb5 832d 1657 a739
00000070: a7d2 180e 0000 0000 fa46 ab37 f401 0000
00000080: 2976 ac37 1598 8737 e665 4e36 0000 0000
00000090: 7b85 8738 8000 7238 cc21 c037 f401 0000
000000a0: b073 c237 f401 0000 4acc 8719 7753 b032
000000b0: b67e 193b 52ae 6539 0000 0000 4989 cb37
000000c0: b244 8537 5798 8640 0d83 d737 2790 1e0f
000000d0: 23d1 4038 6b89 9c01 e681 b136 4994 e13b
000000e0: fd51 1e33 f401 0000 9bd9 bc10 f401 0000
000000f0: ff6c 782e e48b 913a 7a13 1c2b f401 0000

exp_avg f4 [2, 64]
6e-45 -0.0004506277 -0.006753966 6e-45 6e-45 0.0 -6e-45 6e-45
0.0 -0.008702182 6e-45 -2.781376 6e-45 6e-45 -0.0073392196 -6e-45
-6e-45 -0.00796924 6e-45 -0.0004433807 -5.1287567e-05 -5.5242376e-06 6e-45 0.0
-0.0022836546 -0.06951531 6e-45 -0.00050783204 6e-45 0.0 -6e-45 6e-45
6e-45 6e-45 6e-45 0.0 6e-45 -0.0017907146 6e-45 -6e-45
6e-45 -6e-45 -6e-45 -7.3274536e-33 -0.025675377 -0.0051609706 0.0 6e-45
6e-45 -2.8833551 -6.324921e-22 6e-45 -3.1516242e-06 6e-45 -0.00037095227 -0.044326738
-6e-45 6e-45 6e-45 6e-45 6e-45 -0.015583713 6e-45 -6e-45
6e-45 -0.0007151247 -0.00977717 0.0 -6e-45 0.0 -6e-45 -6e-45
-6e-45 -0.01412321 -6e-45 -2.934346 -6e-45 -6e-45 -0.015178208 -6e-45
0.0 -0.012863961 -6e-45 -0.00061733404 -2.5678602e-12 -3.4734554e-21 6e-45 0.0
-0.004419674 -0.0610563 -6e-45 -0.0031612203 6e-45 0.0 -6e-45 6e-45
-6e-45 -6e-45 -6e-45 0.0 -6e-45 -0.0033373532 -6e-45 6e-45
-6e-45 6e-45 6e-45 -6e-45 -0.038906343 -0.007693991 0.0 -6e-45
-6e-45 -3.0218654 8.3749605e-18 6e-45 1.3825039e-21 6e-45 -0.00061095966 -0.057319414
-6e-45 -6e-45 6e-45 6e-45 -6e-45 -0.02275769 6e-45 6e-45
00000000: 0400 0000 3a42 ecb9 6050 ddbb 0400 0000
00000010: 0400 0000 0000 0000 0400 0080 0400 0000
00000020: 0000 0000 9993 0ebc 0400 0000 1002 32c0
00000030: 0400 0000 0400 0000 d67d f0bb 0400 0080
00000040: 0400 0080 6a91 02bc 0400 0000 8d75 e8b9
00000050: 9b1d 57b8 d75c b9b6 0400 0000 0000 0000
00000060: 5ea9 15bb 0b5e 8ebd 0400 0000 0820 05ba
00000070: 0400 0000 0000 0000 0400 0080 0400 0000
00000080: 0400 0000 0400 0000 0400 0000 0000 0000
00000090: 0400 0000 69b6 eaba 0400 0000 0400 0080
000000a0: 0400 0000 0400 0080 0400 0080 6d2f 188a
000000b0: 2b55 d2bc 5c1d a9bb 0000 0000 0400 0000
000000c0: 0400 0000 e488 38c0 b528 3f9c 0400 0000
000000d0: 7e80 53b6 0400 0000 5f7c c2b9 f48f 35bd
000000e0: 0400 0080 0400 0000 0400 0000 0400 0000
000000f0: 0400 0000 d452 7fbc 0400 0000 0400 0080
00000100: 0400 0000 3577 3bba 6c30 20bc 0000 0000
00000110: 0400 0080 0000 0000 0400 0080 0400 0080
00000120: 0400 0080 0965 67bc 0400 0080 53cc 3bc0
00000130: 0400 0080 0400 0080 05ae 78bc 0400 0080
00000140: 0000 0000 5dc3 52bc 0400 0080 96d4 21ba
00000150: 75b2 34ac 3339 839d 0400 0000 0000 0000
00000160: ead2 90bb 2c16 7abd 0400 0080 7a2c 4fbb
00000170: 0400 0000 0000 0000 0400 0080 0400 0000
00000180: 0400 0080 0400 0080 0400 0080 0000 0000
00000190: 0400 0080 7fb7 5abb 0400 0080 0400 0000
000001a0: 0400 0080 0400 0000 0400 0000 0400 0080
000001b0: 425c 1fbd e01d fcbb 0000 0000 0400 0080
000001c0: 0400 0080 3e66 41c0 a27d 1a23 0400 0000
000001d0: 07eb d01c 0400 0000 cf28 20ba c3c7 6abd
000001e0: 0400 0080 0400 0080 0400 0000 0400 0000
000001f0: 0400 0080 566e babc 0400 0000 0400 0000

exp_avg_sq f4 [2, 64]
7e-43 0.00037804508 0.00034381205 7e-43 2.9486057e-05 0.0 1.0628969e-15 0.00015390247
0.0 0.00038980355 0.00023875272 35.67734 0.0004727807 0.00029753355 0.0023458195 0.00022201097
7e-43 0.00018854119 1.6264226e-05 0.00054169586 8.986732e-06 4.88571e-06 7.093e-42 0.0
0.00046592302 0.051066868 1.4068911e-10 0.003042646 2.223342e-30 0.0 0.00034700535 7e-43
0.00013814932 0.0001493313 2.6604474e-05 0.0 0.00017076543 0.000112339665 0.0001242735 7e-43
0.00012211499 7e-43 9.640617e-39 1.3779699e-07 0.004198078 0.00037678613 0.0 0.00015259613
0.00012214581 38.394733 0.00063192355 7e-43 1.4983411e-06 2.486596e-39 2.7121007e-06 0.013189211
7.9566524e-13 7e-43 1.2709869e-29 7e-43 1.8805624e-11 0.0014504507 4.7112795e-12 7e-43
7e-43 0.00020598523 0.00020896114 0.0 1.5770347e-05 0.0 1.05635795e-11 7.741461e-05
7e-43 0.00029036318 0.00012570953 31.34219 0.00026345966 0.00015612117 0.0035503283 0.00011891957
0.0 0.00014271034 9.701966e-06 0.00028911323 5.709457e-06 1.509928e-07 4.557e-42 0.0
0.0002788712 0.020268274 1.6856865e-13 0.0016845689 1.0049371e-30 0.0 0.00018073355 7e-43
7.548128e-05 7.397062e-05 1.4123578e-05 0.0 9.609441e-05 7.377627e-05 6.5738735e-05 7e-43
6.115946e-05 7e-43 5.457927e-26 4.216576e-07 0.00404137 0.0002384151 0.0 7.923446e-05
5.839919e-05 33.28572 0.00034730995 2.1957315e-32 3.659247e-08 7e-43 3.2032096e-06 0.010384771
8.007577e-11 7e-43 7e-43 7e-43 2.0724242e-11 0.0010903776 4.457244e-13 7e-43
00000000: f401 0000 5a34 c639 ac41 b439 f401 0000
00000010: d358 f737 0000 0000 f92d 9926 e160 2139
00000020: 0000 0000 8c5e cc39 b259 7a39 99b5 0e42
00000030: 8ddf f739 47fe 9b39 52bc 193b 9ecb 6839
00000040: f401 0000 24b3 4539 296f 8837 9800 0e3a
00000050: b8c5 1637 eeef a336 c613 0000 0000 0000
00000060: 2147 f439 7e2b 513d 77b0 1a2f 2167 473b
00000070: 0261 340e 0000 0000 45ee b539 f401 0000
00000080: 2ddc 1039 d195 1c39 ac2c df37 0000 0000
00000090: 7f0f 3339 e697 eb38 6a4f 0239 f401 0000
000000a0: fe0b 0039 f401 0000 1efa 6800 59f5 1334
000000b0: 0890 893b 618b c539 0000 0000 3602 2039
000000c0: 4414 0039 3594 1942 aca7 253a f401 0000
000000d0: 9c1a c935 9e13 1b00 8901 3636 8f17 583c
000000e0: b9f5 5f2b f401 0000 b5e4 800f f401 0000
000000f0: 806a a52d 0d1d be3a 6fc3 a52c f401 0000
00000100: f401 0000 bdfd 5739 941c 5b39 0000 0000
00000110: 904a 8437 0000 0000 22d6 392d a759 a238
00000120: f401 0000 e33b 9839 e5d0 0339 cebc fa41
00000130: f520 8a39 75b4 2339 a0ac 683b 7564 f938
00000140: 0000 0000 84a4 1539 a0c5 2237 1f94 9739
00000150: dd93 bf36 9620 2234 b40c 0000 0000 0000
00000160: 7535 9239 a709 a63c 9bca 3d2a c1cc dc3a
00000170: 740f a30d 0000 0000 4b83 3d39 f401 0000
00000180: b44b 9e38 ad20 9b38 4ef4 6c37 0000 0000
00000190: 4b86 c938 55b8 9a38 37dd 8938 f401 0000
000001a0: bc42 8038 f401 0000 b921 8715 2e60 e234
000001b0: 786d 843b 11ff 7939 0000 0000 ad2a a638
000001c0: a7f1 7438 9424 0542 2717 b639 8e04 e40a
000001d0: d929 1d33 f401 0000 b9f6 5636 e324 2a3c
000001e0: a716 b02e f401 0000 f401 0000 f401 0000
000001f0: d84a b62d 00eb 8e3a a8eb fa2a f401 0000

exp_avg f4 [2]
-0.4882351 -0.51217455
00000000: f3f9 f9be df1d 03bf

exp_avg_sq f4 [2]
1.0659493 0.9668137
00000000: 0771 883f 1a81 773f
